models/hh_2_layers_450_nodes_1_ins1_outs.pth (torch, 820364 bytes, 5 tensors)

first_layer.0.weight f4 [450, 1]
00000000: eb0c 8cbf 807e b23e 7587 56bf 9496 c83e
00000010: 16ab 86bf 21f4 9641 c740 2bc0 84fe 56bf
00000020: 644c 16c0 05f7 9641 7cd4 abbe 61b6 b53e
00000030: 9863 57c0 beac 5bbf 8631 aebe 3a3e 8abe
00000040: ac2a 57bf cb25 9b40 a1a4 70be c1d3 6840
00000050: 34bb 1c3f 0c85 a33e 1b60 a73e 077c 213f
00000060: d58d 05c0 02d8 b73e 8fcd 00c0 8593 0f3f
00000070: 7ba6 8040 b521 5abf 32b2 8c40 6070 193f
00000080: 22b6 7740 e449 6240 4c72 183f bde8 7fbe
00000090: c99f 4ac0 a54e 9fbe facd 52bf d51d 953e
000000a0: f6a3 7cbe 75fb 02c0 99f0 8fbe 5c4a 8140
000000b0: a972 8cbe 1d4b a83e 38cd 90be 479e 993e
000000c0: 7feb 7f40 41df 9740 bdd4 aa3e da03 a83e
000000d0: f628 9b3e cf42 353f 33c4 7bbe a841 08c0
000000e0: d0be 0ec0 b6fc 8e40 0a29 d73e ae3a 55bf
000000f0: 0c4a 993e 3e1f 8740 ab2e 00c0 426c 1cc0
00000100: 8b1c 8fbe 72ae c73e 977c 8abe 3735 9ebe
00000110: 37f9 ddbf c086 c13e 879e 8740 3417 7540
00000120: bf72 5fc0 7a7a 45c0 f563 b83e 1c54 223f
00000130: e7eb 7b40 c7ba debf 4d53 a6be b189 8440
00000140: d459 8240 408e b0be d50d 6c40 fe03 85be
00000150: 783e 54bf 2748 7dbe cfdf 68bf e231 8c40
00000160: 11a0 8f40 0e9d be3e ffe1 55bf 76ef 9a40
00000170: 2410 9f3e de9f a541 441a 91be 72bd ae3e
00000180: 2be4 8740 f534 1b3f 0d64 8340 8104 8dbe
00000190: b2a8 8640 bc18 54bf 8792 a53e 23a3 5abf
000001a0: a611 66be b9aa aebe 1254 e03e a923 a941
000001b0: dd40 7040 6185 98be fccb 0f3f a2b3 57bf
000001c0: 95c7 173f 77d0 74be 8082 8dbe 3fae af3e
000001d0: 499a 52bf 4e59 1a3f e7f2 d740 b62a 9140
000001e0: bc93 6cbe 3388 5f40 e06b 7940 e260 f8bf
000001f0: 8016 7c40 c9ab 4ebf 3d15 8c41 c939 b53e
00000200: 87cb a73e f4bf 8d40 a530 2abf 08b4 b83e
00000210: 6bc4 8bbe db5e 5bc0 9ae6 72be 58a7 4abf
00000220: 1ef8 163f f5ae a13e d493 af3e 0640 8dbe
00000230: 481d 9abe 20d8 82be b717 ac3e f46b 8e40
00000240: dae8 b63e a92b 56bf 77b0 58bf 24c1 c13e
00000250: 90da 56bf 8f44 56bf a48c 4dc0 a520 72be
00000260: d01e 9d3e b7d9 9640 0659 6640 ce06 7441
00000270: ba20 59bf 6953 943e e365 5cbf 0270 7940
00000280: 82b3 b43e e6e3 8840 6843 20c0 16cd 8940
00000290: c3a4 8c40 e7a7 193f 933b a53e 4f9a 7341
000002a0: 003d 7a40 bcdc 8040 fdcf 8ebe f74c 67c0
000002b0: a106 82be fac2 b33e d22d 5bbf 10c2 61bf
000002c0: 1e65 f6bf 2890 13bf c2b3 9741 5c49 ab3e
000002d0: fcca 9abe 8b38 b23e 65d1 7b40 9f07 f5bf
000002e0: 7b13 5cbf 18aa 97be 8541 55bf 83ff 6a40
000002f0: d8c0 183f 0e46 e8bf df5b 53bf 61b1 01c0
00000300: 1b14 b73e bdfe 9e40 7042 08c0 ede1 53bf
00000310: e9bb 7140 1508 23c0 0bea 9540 e970 c03e
00000320: 8b04 6fbe af3b 9f3e 07f0 ab3e 62b4 e3be
00000330: 7c4d 06c0 c2dd c33e bb02 a6be 47fc 8cbe
00000340: 1e02 93be 4050 213f 1c75 82be 3ff8 8abe
00000350: e9b3 7d40 c7fc 52bf c6ab a73e f096 83be
00000360: e776 6b40 79e5 58bf b72b 9c3e 6af4 cf3e
00000370: 0450 2cbf e848 70c0 a335 a641 1cab 8fbe
00000380: b5f2 6140 194f 67bf 52d9 51bf 1be3 55bf
00000390: aac5 be3e 3d2b 99be d672 67be 15f2 7bbe
000003a0: d480 06c0 282d 153f fca7 a73e 0952 22c0
000003b0: 1fd2 b73e 98dc 89be 3e23 fdbf ae06 8340
000003c0: 3f0b 9740 add6 7dbe be48 20c0 e62c ac3e
000003d0: 0375 ac41 cc92 9040 fd89 54bf 52cf 58bf
000003e0: 32a1 8a40 f873 9040 957b 9240 0a94 05c0
000003f0: 4d67 9640 fc82 13c0 bf85 7dbe 6ee5 abbe
-1.0941442 0.34862137 -0.8380044 0.39177382 -1.0520961 18.869204 -2.6758287 -0.8398211
-2.3484125 18.870615 -0.3356055 0.35490707 -3.3654537 -0.8581046 -0.34022158 -0.270006
-0.8404949 4.8483634 -0.23500301 3.6379244 0.6122315 0.31937444 0.3269051 0.63079876
-2.0867817 0.35906988 -2.0125463 0.5608447 4.0203223 -0.8520768 4.3967524 0.59937096
3.8704915 3.53576 0.59549403 -0.24991126 -3.1660025 -0.3111469 -0.82345545 0.29124323
-0.24671921 -2.0465977 -0.2811325 4.040327 -0.2743123 0.32869807 -0.2828157 0.3000357
3.9987485 4.7460027 0.3336543 0.32815439 0.30304688 0.70805067 -0.24586563 -2.1290073
-2.2303963 4.4683485 0.42023498 -0.83292663 0.29939306 4.2225637 -2.0028484 -2.4441075
-0.27951464 0.3900028 -0.2704818 -0.30899975 -1.7341679 0.3779812 4.2381015 3.8295412
-3.4913785 -3.0856004 0.3601376 0.6340959 3.9362733 -1.740075 -0.32485428 4.141808
4.0734653 -0.34483528 3.6883442 -0.25979608 -0.8290782 -0.24734555 -0.90966505 4.381089
4.4882894 0.37229198 -0.8354797 4.841731 0.31067002 20.70306 -0.28340352 0.3412891
4.2466025 0.6062768 4.105963 -0.275425 4.2080927 -0.8285024 0.32338354 -0.85405177
-0.2246767 -0.34114626 0.4381414 21.142412 3.753959 -0.2978926 0.5617063 -0.8425847
0.59288913 -0.23907648 -0.27638626 0.34312627 -0.8226667 0.6029252 6.748401 4.5364637
-0.23103231 3.492688 3.8972092 -1.9404566 3.9388733 -0.80730873 17.51037 0.3539565
0.32772467 4.429682 -0.66480476 0.36074853 -0.27298293 -3.4276645 -0.2372078 -0.79161596
0.58972347 0.31578794 0.3429247 -0.27587909 -0.30100465 -0.25555515 0.33611843 4.450678
0.35724527 -0.8366037 -0.84644264 0.37842667 -0.8392725 -0.8369836 -3.211709 -0.23645265
0.3068757 4.7140765 3.5991836 15.251661 -0.8481556 0.28969887 -0.86092967 3.8974614
0.35293204 4.2778196 -2.5041142 4.306285 4.3951125 0.60021824 0.32272014 15.225173
3.9099731 4.026945 -0.27893057 -3.6140726 -0.25395682 0.35109693 -0.8561679 -0.8818674
-1.9249609 -0.5764184 18.962772 0.33454406 -0.3023299 0.34808764 3.9346554 -1.9142951
-0.85967225 -0.2962196 -0.833031 3.6718452 0.59669256 -1.8146379 -0.8256206 -2.0264513
0.35757527 4.968596 -2.129055 -0.8276661 3.7770941 -2.5473683 4.6848197 0.37586144
-0.23341577 0.31100222 0.33581564 -0.4447356 -2.0984793 0.38255125 -0.32423958 -0.27536222
-0.28712553 0.63013077 -0.25479972 -0.27142522 3.9641058 -0.8241696 0.3274824 -0.25701094
3.6791322 -0.8472515 0.30502102 0.4061616 -0.67309594 -3.7544498 20.77619 -0.28060234
3.5304387 -0.9035507 -0.8197223 -0.8354966 0.3726018 -0.299158 -0.226024 -0.24604066
-2.101613 0.5827203 0.3274535 -2.536257 0.35902497 -0.26926112 -1.977638 4.0945654
4.720123 -0.24788924 -2.5044398 0.33628005 21.557135 4.5179195 -0.83023053 -0.84691346
4.332177 4.5141563 4.5775857 -2.0871606 4.70011 -2.3048697 -0.24758051 -0.33573478

first_layer.0.bias f4 [450]
00000000: 9637 1b41 1397 07c0 c8e3 e640 1744 26c0
00000010: 13bc 1441 8f82 4ec0 eda9 b740 d43f e740
00000020: c7a5 c040 8e58 4ec0 1533 0140 8865 0cc0
00000030: 70d9 ae40 d7f3 e740 cd1b 0540 5b38 8f3f
00000040: 0d92 e740 94b9 bcc0 569b ff3e cfd1 81c0
00000050: 3b04 97c0 fb7e e3bf 4358 efbf bd22 9cc0
00000060: 289e e640 a195 0fc0 9828 f940 8276 87c0
00000070: 1fff 94c0 2d1a eb40 7aed a6c0 c521 93c0
00000080: a770 8ec0 93de 71c0 330c 92c0 171d 443f
00000090: edea aa40 1161 da3f ad3b e240 bfde b6bf
000000a0: a2a9 383f 5d6d f740 6dd1 a43f 98cc 94c0
000000b0: 354d 973f b218 f2bf 75cd a73f 2d96 c5bf
000000c0: 4a6b 92c0 81aa b8c0 ce42 f9bf 67e9 f1bf
000000d0: 8b18 cbbf 0fc3 b2c0 7b2f 343f 7e04 b840
000000e0: 4d97 df40 ae52 aac0 83b2 38c0 1131 e540
000000f0: 9de9 c5bf 57d8 9dc0 bea7 b840 520c ad40
00000100: 5f15 a13f 2cde 24c0 4d06 903f 3f2d d73f
00000110: 06ac 9040 2884 1cc0 319e 9ec0 aa30 8bc0
00000120: a63c b640 5e40 ab40 3e1f 10c0 ba7b 9dc0
00000130: afd1 8ec0 1dfa 9240 1047 f13f 3ad5 98c0
00000140: 703a 84c0 20b5 0840 6ebf 78c0 9607 723f
00000150: 433e e440 e9e3 3c3f bed6 fc40 c0da a5c0
00000160: 27f2 abc0 9b0f 19c0 07e9 e540 5576 bcc0
00000170: b8dc d8bf 787b 61c0 11b3 a93f 969e 02c0
00000180: 0b8e 9ec0 5294 95c0 6802 96c0 20e4 993f
00000190: d655 9dc0 7eff e340 68fa eabf 3dc5 eb40
000001a0: e91a 873e 17e5 0540 6b3d 44c0 5527 66c0
000001b0: 0e3b 85c0 f6a7 c33f f780 87c0 3751 e840
000001c0: f13d 91c0 9f11 113f 9839 9c3f dd77 03c0
000001d0: caef e140 75f3 93c0 c4dc 6fc0 5093 adc0
000001e0: 8cf3 cf3e 32b6 6fc0 0ee3 8cc0 e4c6 de40
000001f0: aa61 8fc0 de5d dd40 0e18 42c0 7f7e 0bc0
00000200: 56ab f0bf 6081 a9c0 fadd b140 c3ec 10c0
00000210: 805b 943f 2cb1 b040 42fc 083f 947f d840
00000220: e0f9 8fc0 5291 e0bf fbf1 02c0 f263 9a3f
00000230: ade7 c83f 7314 5e3f 138b fcbf a7dd a9c0
00000240: b673 0ec0 8cd3 e640 ff5e e940 e2e3 1cc0
00000250: 9e10 e740 1d64 e640 303e b540 a6f7 053f
00000260: 18d4 d1bf 79fc b6c0 4966 77c0 a6cc f7bf
00000270: d0d5 e940 3cf7 b5bf fece ed40 cd6a 8dc0
00000280: ffbd 0ac0 b45c a1c0 a1a4 ab40 5d55 a1c0
00000290: 1ddc a7c0 2230 93c0 a8b4 e8bf 3c48 e1bf
000002a0: 608d 64c0 3a04 87c0 3d3f a13f 20b2 b540
000002b0: 600e 5b3f 5550 09c0 b3e1 ec40 a355 f440
000002c0: 657c a940 c59b 9440 5b57 4fc0 30cf fcbf
000002d0: 2922 cb3f 1d6e 08c0 c477 90c0 d599 a840
000002e0: 7680 ed40 be88 c03f 6ba6 e540 4f08 66c0
000002f0: 6e5c 92c0 68ae 9940 07d0 e240 5e25 c640
00000300: 1819 0ec0 4846 c2c0 f420 f040 1a91 e340
00000310: 0ed8 64c0 ba2a be40 67e3 b5c0 1a7f 1bc0
00000320: 47b5 ea3e 62a9 d6bf 8926 fdbf e219 5240
00000330: 3eea e440 0108 20c0 09b6 f03f f9dd 983f
00000340: 439f af3f 2376 9cc0 f0a2 5c3f 8e91 913f
00000350: 32dc 91c0 4fa1 e240 bf75 f1bf 04bf 663f
00000360: 42f3 79c0 5e1b ea40 dc5b cfbf eba0 2fc0
00000370: ac7c b440 344d bc40 c31f 62c0 bcc7 a33f
00000380: 9a99 7ec0 bb20 fb40 cb64 e140 9c0a e640
00000390: 3196 18c0 880b c63f 2d35 9a3e 883a 333f
000003a0: 2de7 f740 c24a 8ec0 7587 efbf 0871 bc40
000003b0: 36c3 0ec0 8a7e 8d3f 41fb ac40 bd52 98c0
000003c0: 80fa b6c0 8cdb 3c3f 28c0 b340 700b fdbf
000003d0: 879b 6ac0 5ee0 acc0 fd3b e440 1af5 e940
000003e0: cea0 a3c0 8fa2 acc0 b10c b0c0 8ef1 e540
000003f0: 3429 b6c0 e913 e440 1b3e 3e3f 9880 0140
9.701071 -2.1185958 7.2153053 -2.5979059 9.295917 -3.2267187 5.739493 7.2265415
6.0202365 -3.224155 2.0187428 -2.193697 5.4640427 7.2485156 2.0798218 1.1189073
7.2365785 -5.8976536 0.499232 -4.0568614 -4.7192664 -1.7773126 -1.869881 -4.8792405
7.206806 -2.2435076 7.7862053 -4.2332163 -4.6561427 7.3469453 -5.216489 -4.5978723
-4.4512515 -3.7792099 -4.563989 0.7660689 5.3411775 1.7060872 7.0697846 -1.4286727
0.7213384 7.7321 1.2876412 -4.649975 1.1820437 -1.8913786 1.3109576 -1.5436455
-4.575597 -5.7708135 -1.9473512 -1.8899354 -1.5866865 -5.586311 0.7038495 5.7505484
6.9872193 -5.3225927 -2.8858955 7.1622396 -1.5461918 -4.9326587 5.7704763 5.407754
1.2584647 -2.5760603 1.1251923 1.6810683 4.520999 -2.4455662 -4.9568105 -4.3496904
5.6949034 5.3516073 -2.2519069 -4.9213533 -4.463096 4.5930314 1.8849812 -4.7760286
-4.1321335 2.136055 -3.886684 0.94542825 7.1326003 0.73785263 7.9012136 -5.182953
-5.3733096 -2.3915775 7.1846957 -5.889445 -1.6942358 -3.523161 1.3257772 -2.0409293
-4.954839 -4.6743555 -4.6877937 1.2022743 -4.916728 7.124938 -1.8357668 7.367827
0.26387718 2.0921075 -3.0662487 -3.5961506 -4.163459 1.5285633 -4.234493 7.259914
-4.538811 0.5666751 1.2205076 -2.0541909 7.060521 -4.623469 -3.7478495 -5.4242325
0.406155 -3.7454953 -4.4027166 6.9617786 -4.480672 6.9177084 -3.0327182 -2.1795957
-1.8802288 -5.297043 5.5583467 -2.2644508 1.1590424 5.5216274 0.53509915 6.7655735
-4.4992523 -1.7544348 -2.0460193 1.2061751 1.5695702 0.86749953 -1.9729942 -5.308307
-2.2258124 7.2133236 7.292846 -2.4514089 7.2207785 7.199721 5.6638412 0.52331007
-1.6392851 -5.7183194 -3.865618 -1.9359329 7.30735 -1.4216075 7.4315176 -4.419287
-2.1678464 -5.0425663 5.3638463 -5.0416703 -5.2456193 -4.5996256 -1.8180132 -1.7600169
-3.5711288 -4.219266 1.2597424 5.677994 0.8556881 -2.145528 7.402551 7.6354537
5.296435 4.644015 -3.2397068 -1.9750729 1.58698 -2.1317208 -4.51462 5.2687783
7.4219313 1.504173 7.1765647 -3.594257 -4.573783 4.80254 7.087894 6.1920614
-2.2202816 -6.0710793 7.5040226 7.1114626 -3.575687 5.9427156 -5.684009 -2.4296327
0.4584143 -1.6770442 -1.9777385 3.2828298 7.153594 -2.5004885 1.8805553 1.1942741
1.3720478 -4.889421 0.8618612 1.1372545 -4.5581293 7.082191 -1.8864058 0.90135217
-3.9054723 7.3158407 -1.6199908 -2.7441967 5.6402187 5.884424 -3.5331886 1.2795329
-3.978125 7.8477454 7.043554 7.188795 -2.384167 1.5472269 0.30118695 0.70011187
7.7469697 -4.4466257 -1.8713213 5.8887978 -2.2306647 1.1054242 5.4056706 -4.7601
-5.7180786 0.737725 5.6172066 -1.9769115 -3.6657426 -5.4023886 7.132323 7.3111696
-5.1133795 -5.3948436 -5.5015492 7.1857367 -5.6925297 7.1274304 0.74313515 2.0234737

hidden_layers.0.0.weight f4 [450, 450]
00000000: 9461 b7be b61c 973d 041d b2be 5723 213e
00000010: ff42 cfbe c310 733c b0a4 a8bd f164 d4be
00000020: 47ac 40be d4d7 b33d 2919 ecbd 4163 973d
00000030: 89f8 8fbd 1d0f fcbe d6fd 3abe 9788 edbd
00000040: bc73 b1be b2ca d73d 8c1a efbd 7c7f c93c
00000050: ac44 5f3e 5a65 8f3d 27dd 783d 9e6e 293e
00000060: c147 7ebf 713f b03d 2a63 96bf 822e 103e
00000070: de9c d63d 7b96 c3be 3206 903d dd12 153e
00000080: b123 3e3d 6370 393d 290b 4c3e 0826 23be
00000090: cedd 09be b7f1 10be 3646 a5be d6e2 4a3d
000000a0: 5e6a 2ebe 03cf 92bf b8fc 20be 0102 393d
000000b0: b8f5 1dbe 8a52 173e c1d3 3ebe 6749 053e
000000c0: c0f4 8f3d 1ace f33c 2658 cf3d 26eb b63d
000000d0: c763 a93d 722e 343e 2839 d0bd 3f79 dcbe
000000e0: 7740 27bf 5242 ac3d 8dcf 1e3e 3261 b8be
000000f0: 5fd8 103e 64c7 983d 0b89 5dbf 0fb9 0bbe
00000100: 746d 0dbe f626 d13d 4ba4 05be 07a1 3bbe
00000110: 5739 61bf 5c15 093e f392 283d ecd8 e23c
00000120: 658c 8cbd 8a59 16bd 1907 f53d 85fc 313e
00000130: 514c 703d 8231 6abf 4a95 20be 687d bf3c
00000140: 9ed2 9f3d c0bc 15be 76a6 c93d 09fa 1fbe
00000150: 07a8 c1be b6ab 07be daab abbe 0e92 863d
00000160: 2f86 653c 44af 253e fa79 dbbe c476 923d
00000170: 040d 153e 23d6 083d 2343 1abe 5a3b f33d
00000180: 3306 2d3d da17 673e e2d6 893d 450b 0fbe
00000190: 114d 5e3d a08b b6be a13a b93d 74bd c0be
000001a0: 197d b1bd 745a 17be ac83 0a3e 947f 9c3d
000001b0: 5631 b83d 5f4b 32be 4231 0c3e bcc6 b4be
000001c0: ff59 103e dcef 21be 6cbe 27be 26c2 573d
000001d0: 7b93 b6be abff 523e 1336 683d 2691 c73d
000001e0: c4bb cbbd b0c9 c53d a99b 6a3d 4677 85bf
000001f0: c4e9 7d3b 7985 c1be 1412 953d d99a be3d
00000200: 1a3f 1c3e 32f4 853d 6c60 cbbe de2c 173e
00000210: 54fc e9bd c609 a3bd 21f3 cdbd 2f69 b5be
00000220: 12f5 513e 7259 e33d d87a a33d 9205 2bbe
00000230: 2bba ecbd 9d3e 31be 170e f03d e4d0 f63c
00000240: c54f 883d c781 b7be 1c3c bcbe 2f61 0c3e
00000250: 2034 b4be cac7 a8be 82f6 6abd fc35 0abe
00000260: abf5 023e 9d8c 533d 02d3 a73d 028b 943d
00000270: f0ee b1be df89 6e3d 9d03 a1be a4c6 d53c
00000280: c39f f73d e035 b53b 1828 30be a917 793d
00000290: 9a50 9d3d 91e2 2c3e 21a0 813d 81dd 353d
000002a0: 0b95 0f3d 1bf2 593c 8db5 f3bd c77a c8bd
000002b0: bd3f 07be cfd7 003e 9e20 babe a485 bfbe
000002c0: 2975 66bf 923e 77be 6ed9 b43d ab28 b93d
000002d0: dc2a 2dbe b717 123e 87f7 4e3d bb12 60bf
000002e0: 0d91 adbe 3a6a 1bbe 9a58 afbe 8eac bf3d
000002f0: 76c4 193e 1c84 4abf ece9 cbbe 1cb3 5abf
00000300: e716 0d3e c247 933d d859 81bf 901b b3be
00000310: b8bc c03d d568 efbd b69d 953d 33a4 b23d
00000320: 6b6c 23be a823 053e 1e66 803d 07fe 63be
00000330: dc38 78bf b382 c43d 69fe 13be a01e 00be
00000340: 3937 30be 3759 723e 2619 26be b26a 2fbe
00000350: a47d c43d 844a 9fbe 0841 013e b8dc 34be
00000360: 58d8 a63d bcac a4be 76a8 dd3d ed76 0d3e
00000370: f5be afbe 0002 2fbd f005 833d 548e 0cbe
00000380: ac01 a33d f388 b4be a474 98be af90 c8be
00000390: 6b41 b13d ee03 21be e0db 21be 959f c5bd
000003a0: f637 8bbf 67ca ec3d e8ca 023e fc51 f5bd
000003b0: d98d 073e 58a1 47be 40f5 3ebf a49d a13c
000003c0: ca5a b23c 9cb1 d8bd b2aa 0bbe 50e8 bb3d
000003d0: 6260 b83d 67a6 133d 674e c5be 0a71 b3be
000003e0: 00e2 b33d d680 a43c 1dc5 213d 8d15 87bf
000003f0: 3848 c63d 693f 06bf 2525 00be 5177 14be
-0.35816634 0.07378523 -0.34787762 0.15736137 -0.404808 0.014835539 -0.08234537 -0.41483262
-0.18815719 0.087814 -0.115282364 0.07391978 -0.07029826 -0.4923028 -0.18260893 -0.11598318
-0.3465861 0.10536708 -0.11674985 0.024596922 0.2180354 0.07001753 0.060757782 0.16546103
-0.9932824 0.086058505 -1.1749012 0.14080241 0.10479139 -0.38200745 0.07032432 0.14557977
0.046420757 0.045273196 0.19926132 -0.15932477 -0.13463518 -0.14154707 -0.3228013 0.049532734
-0.17032763 -1.1469425 -0.15721405 0.045167927 -0.15425766 0.1477758 -0.18635465 0.13016282
0.07029104 0.029761363 0.10124235 0.0893157 0.08270984 0.17595842 -0.10167152 -0.43061253
-0.6533274 0.08411087 0.15508862 -0.36011654 0.14145039 0.07459906 -0.86537236 -0.13644813
-0.13811284 0.10212509 -0.13050954 -0.18323146 -0.8797812 0.13387054 0.041155767 0.027691327
-0.06862716 -0.036706485 0.119642444 0.17381485 0.05866653 -0.9148179 -0.1568195 0.023375228
0.07803844 -0.14622784 0.09846203 -0.15622725 -0.37823507 -0.13249096 -0.3352955 0.065708265
0.014009043 0.1618014 -0.42866498 0.07151559 0.14555746 0.03340734 -0.15064673 0.11876555
0.04224224 0.22567692 0.06730439 -0.13969143 0.054272715 -0.356534 0.09044386 -0.3764454
-0.086664386 -0.14780599 0.13526791 0.07641521 0.08993785 -0.17411564 0.13690665 -0.35307872
0.14096831 -0.15814155 -0.16381234 0.05267539 -0.35659394 0.20605342 0.056692194 0.09744482
-0.09947923 0.096576095 0.057277355 -1.0427024 0.0038744071 -0.37797144 0.07278839 0.093068786
0.15258446 0.06540717 -0.39722002 0.14763209 -0.11425081 -0.079608485 -0.10056139 -0.3543181
0.20503643 0.11101045 0.07982415 -0.16701344 -0.11558946 -0.17309041 0.117214374 0.030128904
0.0665584 -0.358412 -0.3676461 0.13708948 -0.35196018 -0.32964927 -0.057363994 -0.13497156
0.12789027 0.05164777 0.081945434 0.07253076 -0.34752607 0.058236953 -0.3144807 0.026095696
0.12091019 0.005530104 -0.17202795 0.06081358 0.07681389 0.16883303 0.0632937 0.044400696
0.035054248 0.013302351 -0.118998624 -0.09789043 -0.13207908 0.12582324 -0.3635301 -0.37406647
-0.9002252 -0.24144962 0.08830534 0.0904096 -0.16910881 0.14266859 0.05052903 -0.8752858
-0.33899727 -0.15177241 -0.34247285 0.09359084 0.1501635 -0.7910783 -0.39826906 -0.8542955
0.13778268 0.07191421 -1.0105543 -0.34981966 0.09410995 -0.11689917 0.073054716 0.08722725
-0.15959327 0.13001883 0.06269477 -0.22264872 -0.9696176 0.095952414 -0.14452519 -0.12511683
-0.17208566 0.23666845 -0.16220531 -0.17130545 0.095942765 -0.31111538 0.12622464 -0.17662323
0.08146733 -0.32163036 0.10823147 0.13814898 -0.34325376 -0.042726517 0.06397617 -0.13726169
0.07959303 -0.35260734 -0.2977649 -0.39172885 0.086550556 -0.15724155 -0.15806532 -0.096495785
-1.0876453 0.11562043 0.12772715 -0.11978528 0.13237704 -0.19495142 -0.7459297 0.01972849
0.021771807 -0.10580751 -0.13639334 0.091751695 0.090027586 0.036047366 -0.3853638 -0.3504718
0.087833405 0.020080965 0.039494622 -1.0553452 0.096817434 -0.52440506 -0.1251417 -0.1449864

hidden_layers.0.0.bias f4 [450]
00000000: af49 d63c 4ffb aebd 7036 a1bd af60 143e
00000010: b8e0 8f3d e237 19bd 2687 a4bd 2fe8 8fbd
00000020: 5059 abbd c0ee 183d 604b 9b3c 20d5 8abd
00000030: 657f 4abd d3d1 52bd 7388 fd3c 4122 aebe
00000040: c1ed 5ebc aa9e f1bd 191c 0a3d db41 863f
00000050: 6957 31bd bfb9 63bd 9cd7 ec3d 77e9 023d
00000060: c609 e83f 4f5e 23bc 5edd 153d 94ea bcbd
00000070: 69b8 7c3c 8637 01be b024 a3bd 2eab 81bd
00000080: 8070 27bd c3a3 8fbd cc6c c5bc 8ce9 2dbe
00000090: e602 e43d 4490 5a3d 0578 82bc 1e73 87bd
000000a0: e1f7 8cbd 70c9 92bd bf54 aa3d 3438 c6bd
000000b0: 6caa eebd 3824 9fbc 9201 06be cb96 8cbd
000000c0: 24d1 cabd 5818 95bd 7cd6 32bd f17f 0dbd
000000d0: e1cd e9bd de51 883d 07fc 3dbd a101 be3d
000000e0: b813 4cbd f4cf 0b3c f8a3 cdbd 783d b53d
000000f0: bab0 b4bd 7a67 63bd 20bb 85bc a790 6bbd
00000100: 8efc e9bd 17f3 19bc 2732 8b3d 22a8 02be
00000110: b2bc 1dbd aa33 833f 67a7 c7bd 7598 b7bc
00000120: ab87 1ebd 8f1f bcbd 7152 293d e4f6 893d
00000130: 7784 d9bd f5f5 8ebd bfc3 08be 018e 84ba
00000140: 1a09 fdbd 2fd3 23be 8d40 8abd dbd4 8bbd
00000150: 0e6b 89bd 170c 5cbd 2bbc 053e 6f51 cb3d
00000160: d4ce acbd bd16 e8bd 36ca 93bd 28e3 8ebd
00000170: a5d5 4f3d 4e30 d2bc 4c4e 86bd 7835 3abc
00000180: 6a6e 59bd c6f0 99be 0359 3dbc 61d7 fbbd
00000190: 47ca 72bd 3404 cebd 2e65 39bc 9e11 14bd
000001a0: a591 9abd 1bb9 1ebd fa96 e1bd c676 9fbd
000001b0: 8b9d 85bc 84f5 c33d b697 b3bd ba3b e7bd
000001c0: c86b a8bd a102 f83f 5f96 a0bd 1229 4fbd
000001d0: f7db 09bd 883f 9c3e ec41 56bd 16bd ce3d
000001e0: eac1 32bd a76b e7bb d1fe e5bd 74e0 92bd
000001f0: 66eb c8bd b69a df3d 349a 29bd 8fff 103d
00000200: 1262 333e fc57 64bc e7b0 f4bc 576d 28bd
00000210: b800 9ebd ecd1 8f3e 16b7 653d 0e81 8bbd
00000220: 72eb dbbd 2e7c bbbd dff9 313d de6f b9bd
00000230: d547 c6bc 336c 3dbd e8c9 9fbd 2402 db3c
00000240: 1c28 7dbd 75fb d5bd 9241 c4bd 9033 bfbd
00000250: e168 ddbd a413 8f3d cda8 43bd 2e26 09bd
00000260: f342 3abe f47c a3bd 7ea7 acbd 075a afbd
00000270: 1d85 27bd 56f0 5dbc 4f09 b7bd 1ebd 563d
00000280: 8d86 05be 27a6 963d 9598 a1bd 86ad 403d
00000290: 6e9f 87bd 1196 0dbd 4fbb a1bd 1412 a63e
000002a0: b91a 26bd dd2c 863d 53c1 353d 6872 88bd
000002b0: 55ff d33e c002 52bd 04cd 83bd 577e 99bd
000002c0: 5243 dcbd d5c1 3c3d 4a59 023d 98d8 4e3d
000002d0: 7032 a83f 22bc ba3c df46 9dbd b5e2 99bd
000002e0: 3d0b 31bd 0ba9 3ebd 6ae3 5fbd 6f1f 18bd
000002f0: dc6d 043e 1ec6 b4bd 4cb4 6fbd 89d7 88bd
00000300: ab9c 9ebd 7e94 e83d 01d6 413f b673 f3bd
00000310: d8b7 b5bd 374a d13d 9b40 a03d 97af 80bd
00000320: 7cec 40bd caa2 e1bd 4a1c 26bd 8710 acbd
00000330: 6158 8bbd e56b 063e 3e51 c4bd b5e4 5dbd
00000340: f873 6fbd 8e57 bb3d 25b2 17bd 37a9 b3bf
00000350: db44 903d 3747 e9bd 9aae f83d 9b47 51bd
00000360: 1c23 78bc 00ba 18bd ac1f 2bbd 8186 d63d
00000370: 8b0e a9bd ccc8 01be c76b 35bd 5926 a5bd
00000380: 8f00 bc3d 019d acbd 637e d0bd f394 e1bd
00000390: aa50 633e e8c9 b9bd af89 c03d 862b 473d
000003a0: b205 dbbd 4dd5 debd 8756 563e 6381 ccbd
000003b0: ab96 4cbd c6ef c93d eef4 3bbd 9629 c3bd
000003c0: cb47 85bc 666a 07be 0791 cabd 4266 51bd
000003d0: 9874 193c 1645 93bd e277 b33d db5d ffbd
000003e0: 7eef 5e3e e8ce 77bd 3ee0 613d c557 db3d
000003f0: 0931 d0bd 2921 97bd a055 c23e 3886 22bd
0.026158182 -0.08544027 -0.07871711 0.14490007 0.070252836 -0.03740681 -0.0803359 -0.070267074
-0.083666444 0.037337065 0.01895684 -0.067789316 -0.0494379 -0.051469635 0.030948853 -0.3401051
-0.01360649 -0.11797841 0.033718202 1.0488847 -0.04329625 -0.055597063 0.11564562 0.03196093
1.8127983 -0.009971215 0.036588065 -0.0922443 0.015424826 -0.12618837 -0.07965982 -0.06331478
-0.040878773 -0.07013657 -0.02409973 -0.16983622 0.11133365 0.05336024 -0.01592637 -0.06613754
-0.06883217 -0.071673274 0.08316945 -0.09678689 -0.11653599 -0.01942645 -0.13086537 -0.06864699
-0.09903172 -0.07280034 -0.04366158 -0.034545843 -0.114162214 0.0665624 -0.04638293 0.092776544
-0.049823493 0.008533467 -0.1004104 0.08849615 -0.088227704 -0.055518605 -0.01632458 -0.057510998
-0.11425124 -0.009396336 0.06796675 -0.1275945 -0.038510032 1.0250142 -0.09748726 -0.022411564
-0.0387036 -0.09185707 0.041338388 0.06736544 -0.10620969 -0.06980506 -0.13355921 -0.0010113121
-0.123552516 -0.15998529 -0.06750593 -0.06827708 -0.06709872 -0.053722467 0.13060062 0.099276416
-0.08437887 -0.11332462 -0.07216303 -0.0697692 0.050740857 -0.0256578 -0.06557903 -0.011365287
-0.053083815 -0.30066508 -0.011556867 -0.1229694 -0.059274938 -0.100593954 -0.011315627 -0.036149614
-0.07547311 -0.03875075 -0.110151246 -0.07786326 -0.016310474 0.09568313 -0.08769171 -0.11290689
-0.08223683 1.9375802 -0.07841181 -0.050576277 -0.03365704 0.3051722 -0.05230896 0.10094659
-0.043641962 -0.0070623937 -0.11230243 -0.07171717 -0.09810524 0.10918181 -0.041406825 0.03539997
0.1751788 -0.013936993 -0.02986951 -0.0411199 -0.07714981 0.28089845 0.056082807 -0.068117246
-0.10738267 -0.09154545 0.043451186 -0.0905454 -0.024204174 -0.046245765 -0.078021824 0.02673442
-0.06180583 -0.10448352 -0.09582819 -0.09336007 -0.1081102 0.06986168 -0.047768403 -0.033483677
-0.18189602 -0.07982817 -0.08430384 -0.08562093 -0.04089843 -0.01354607 -0.08937322 0.05242645
-0.13039608 0.0735591 -0.07890431 0.047040485 -0.06622206 -0.034566943 -0.078970544 0.32435668
-0.04055283 0.06551526 0.04437382 -0.06662446 0.4140574 -0.051272154 -0.06435588 -0.074948005
-0.10755028 0.04608329 0.031823434 0.05049953 1.3140392 0.022794787 -0.07679533 -0.07513944
-0.04322361 -0.04654793 -0.05466024 -0.037139352 0.12932533 -0.0882685 -0.058521554 -0.06681735
-0.07744726 0.11356448 0.7571717 -0.118873045 -0.08872956 0.102192335 0.078248225 -0.06283491
-0.04710053 -0.11017378 -0.040554322 -0.0840159 -0.06803966 0.13127096 -0.09585808 -0.05417319
-0.058460206 0.09147559 -0.037035126 -1.4036015 0.07044383 -0.11390536 0.121426776 -0.05109368
-0.0151450895 -0.03728676 -0.04177825 0.10474873 -0.08254727 -0.12674254 -0.044292238 -0.08063955
0.09179794 -0.084283836 -0.10180356 -0.11014738 0.2219874 -0.09071714 0.09401261 0.04862549
-0.10694446 -0.10880528 0.20931445 -0.09985616 -0.049948376 0.09860186 -0.04588788 -0.09529416
-0.016269585 -0.13224182 -0.09890943 -0.05112291 0.009366177 -0.071909115 0.087631 -0.124690734
0.21771047 -0.060500056 0.055145495 0.107101 -0.10165603 -0.07379372 0.37955952 -0.039678782

output_layer.weight f4 [1, 450]
00000000: 9d66 763d 3f12 a13d 08fc 823d b4cf f6be
00000010: fb7b 183d ed28 583d dab1 4c3d 4b50 ad3d
00000020: c4be 9c3d be67 8d3c 9f4d d33d 5b98 c53d
00000030: 33c5 373d d6b7 953d c7fa 033f 3e22 97be
00000040: 6e53 12be 7cf6 47bd 3dee 9b3d 5a6c 4a3e
00000050: b33f 2c3d d4c2 ab3d bc08 613d 085e cd3d
00000060: 2c23 ad3e eb88 b23d 7bcd c73c cb0c a93d
00000070: 5cd5 083e 57d6 553d 9bc0 be3d 06e3 793d
00000080: 15eb 9c3d 6f03 ad3d 5aee a93d 051a 35bd
00000090: 9d4b 233d e0fb 313d 1be2 c03d c27c c43d
000000a0: fe53 9e3d d666 873d f449 e33c cadb c53d
000000b0: b344 2a3d 281a 80bd 9921 643d e856 873d
000000c0: 99e8 143e f522 583d 39d2 c73d c15f 1d3e
000000d0: 542c 473d 5cae d13c 777a 5a3f 2fe3 f93c
000000e0: 28a9 8b3d 52d3 c63d 5d32 13be 4638 c73c
000000f0: 17f1 543d 24e5 04be ab36 113e e47f 7f3d
00000100: 6a66 4a3d 2bd4 c73d be48 973d 515c 623d
00000110: ac65 0abe 805f 353e 4a44 bf3d 63cc b2bd
00000120: b7a2 9a3d 6cd0 833d 6029 6a3d 1302 853c
00000130: ce81 4b3d 92a3 873d 6c45 a83d 25a6 d03d
00000140: 016a 333d ad91 71bd 95fd c33d 588d 723d
00000150: 022f 6c3d b336 7abc ff66 3c3d eb5b ca3c
00000160: 3af5 983d 8de1 e9bd 32ba 4e3d 18b4 513d
00000170: 1b8a 443c 57ec b83d 6b27 c73d 21e3 a73d
00000180: bfa0 813d acb4 e43c 7020 d63d dbd9 8b3d
00000190: 426b 313d ccb5 9e3d 64d6 60bd 6dc3 923d
000001a0: 78f8 6b3d 9688 913d 50c1 863d f095 533d
000001b0: 28e1 ae3d 486a fb3c c2bb 343d 2928 523d
000001c0: 342c a93d 0bf4 553e 04dd 833d 34ae 2d3d
000001d0: c741 6a3d 7d0c 463e c7e2 823d 593f 92be
000001e0: 2877 4d3d 7dc8 b43d 03b5 b13d a98c cc3d
000001f0: 1b0f 753d 4f61 eb3c 2a97 943d bfac b33d
00000200: 42b5 24bf 3604 ae3d e3cc 963d c76f 483d
00000210: add7 fa3d f140 7fbf 24f8 a33d 945c c83d
00000220: f32d 4d3d f268 703d 190f 8f3d 9c77 c53d
00000230: 7eaf a8bd 053e b33d 5253 e03d 693d 373e
00000240: 0063 003e b797 4b3d 0b7f 8e3d 68e7 8f3d
00000250: 2485 403d 88e9 0e3d 4e95 4e3d 6a20 553d
00000260: ce22 933c 0958 d63d a13d a73d 5f87 853d
00000270: ec86 c03d 3da6 9bbd 0f77 963d ae9f e13c
00000280: d4db 873d 7ff2 e43c eb0f 8e3d 08bc 563f
00000290: 17ba 523d b650 543d 96f7 b43d 8f7f dfbd
000002a0: a234 573d bab2 b13c 7757 883c 48ee 873d
000002b0: eeb9 913e bade 713d f006 c43d 8f43 913d
000002c0: ba83 453d 04d8 403d 502e 6cbe 8d25 99bd
000002d0: d525 9a3d 2050 b8bd ca74 9b3d bc9e ce3d
000002e0: 6f3f d43d 8831 473d a7ba 4c3d 4688 823d
000002f0: 55b9 a53c f477 a13d 6bb6 8f3d 084b df3c
00000300: 272b 7c3d f29a 05bf 76a6 673f 3347 c43d
00000310: ec9b 813d 0637 003d 1d0c 013d c45f aa3d
00000320: c912 123e 3386 ba3d 111c d13d ac7e 9e3d
00000330: 5e97 ab3d 6a2e 213d 188e 723d 863a 873d
00000340: 99d8 c73d 5357 0f3d ea7d 9a3d 6832 2b3e
00000350: 2161 023d c062 733d a393 c13c 75fe 8f3d
00000360: f35e ae3d c85b 913d 8be5 7a3d ff60 163d
00000370: c3ab 3abd 3f7c 7c3d 1ccf c33d 2372 863d
00000380: 1bf9 b43c 7f96 893d acd2 ae3d 8133 d03d
00000390: 7483 72bf 7486 503d b4f6 353d 042a b23c
000003a0: e3b2 5a3d 770d c73d 0c4e 28be c555 5ebe
000003b0: a7fa 133f e291 cf3c 61bd d63d 6702 d33d
000003c0: d8a6 a33d 50b5 443d e26f 6f3d b7eb af3d
000003d0: d63f ba3d 8787 973d 9c90 233d 8308 503d
000003e0: 6b50 12be 5ee9 b73d a3d5 96be 59b2 b2bd
000003f0: 0f59 29bd 1e1f 513d 943d aa3e 4abb 783d
0.060156453 0.07864808 0.063957274 -0.4820534 0.037227612 0.052773405 0.0499743 0.0846258
0.07653573 0.017261382 0.103175394 0.096482 0.0448658 0.073104545 0.5155453 -0.29518312
-0.14289638 -0.04881905 0.076138 0.19767895 0.042052936 0.0838677 0.05493997 0.10027701
0.33815897 0.08717521 0.024389973 0.08254393 0.1336264 0.052206364 0.0931408 0.061007522
0.07662026 0.084479205 0.08297415 -0.044214267 0.039867032 0.043453097 0.09418126 0.09594108
0.07730864 0.06611411 0.027745225 0.09661062 0.041569423 -0.06254989 0.055696104 0.06608373
0.14541854 0.052767713 0.09756894 0.15368558 0.04862626 0.025595836 0.85343117 0.030503837
0.06819373 0.09708275 -0.14374681 0.024318825 0.051987734 -0.12978035 0.1418101 0.062377825
0.049414076 0.09757265 0.07386921 0.05526382 -0.13515347 0.17712212 0.09339197 -0.0873039
0.07550567 0.06436238 0.057168365 0.01623634 0.04968434 0.066229954 0.08216366 0.101879396
0.043802265 -0.058976818 0.09569851 0.059216827 0.057662018 -0.01527183 0.045996662 0.024702033
0.07468648 -0.114199735 0.05047054 0.05119714 0.011995818 0.09029453 0.09724315 0.08197618
0.06329488 0.027918182 0.10455406 0.06828662 0.04331518 0.07749519 -0.05489196 0.07166181
0.057610005 0.0710613 0.0657984 0.051656663 0.08539039 0.030690327 0.044124372 0.05130783
0.08260384 0.20893876 0.0643864 0.04240246 0.057191636 0.19340701 0.063909106 -0.28563955
0.050162464 0.088273026 0.08677103 0.09987766 0.05982886 0.028732924 0.07255395 0.08773183
-0.6433908 0.08496897 0.07363298 0.048934724 0.12248168 -0.9970847 0.080063134 0.09783283
0.05009265 0.058693834 0.069853015 0.09641954 -0.082365975 0.08752064 0.10953392 0.1789452
0.12537766 0.049705233 0.06957825 0.07026559 0.047001973 0.03489068 0.050435357 0.052032866
0.017960932 0.1046601 0.08166052 0.065199606 0.09400734 -0.07600067 0.073469274 0.027541962
0.06633726 0.027947662 0.0693663 0.8388066 0.051447 0.051834784 0.08836286 -0.10913002
0.05254043 0.021691669 0.016643269 0.066372454 0.28462166 0.0590503 0.09571636 0.07092964
0.048221327 0.04708101 -0.23064542 -0.07477865 0.07526747 -0.08999658 0.07590635 0.1008887
0.103636615 0.04863122 0.049982693 0.06373648 0.020229975 0.07884207 0.07017215 0.027257457
0.06156459 -0.5218955 0.90488374 0.09583893 0.06328568 0.031302474 0.031505693 0.08319047
0.14264978 0.09107628 0.10210431 0.077390045 0.083784804 0.039350905 0.059217542 0.06602959
0.097581096 0.03499539 0.075435475 0.16718447 0.03183091 0.059420347 0.023629969 0.07030956
0.08514204 0.07097584 0.061254065 0.036713596 -0.04557396 0.061641928 0.09560987 0.065647386
0.022091439 0.06718158 0.08536276 0.101660736 -0.9473183 0.050909474 0.044424728 0.02174855
0.053393256 0.09719365 -0.16436023 -0.21712406 0.5780434 0.025338117 0.1048534 0.103031926
0.07990807 0.048024476 0.05845631 0.08589881 0.09094207 0.07398897 0.039932832 0.050789367
-0.1428849 0.08980058 -0.29459867 -0.08725423 -0.0413447 0.051055066 0.33250105 0.060725488
