Models/hh_2_layers_250_nodes_1_ins1_outs.pth (torch, 257228 bytes, 5 tensors)

first_layer.0.weight f4 [250, 1]
000000 80 bd a6 be 5d e7 9f 3e e3 c4 f3 bf 27 ca b5 3e
       -0.32566452 0.31231204 -1.904446 0.35505792
000010 66 24 2e bf ce 2b 77 40 6d fd 17 bf 2e 7a 1b c0
       -0.6802429 3.8620486 -0.5937107 -2.4293323
000020 87 8a 1e bf 36 e0 6f 40 d0 67 26 bf e6 b1 bd 3e
       -0.61930126 3.7480597 -0.65002155 0.37049788
000030 d2 b2 c1 c0 63 fc 42 bf e8 71 a6 be 23 81 a7 be
       -6.0530787 -0.7616636 -0.3250878 -0.3271571
000040 d2 85 7d bf 2b 04 ae 41 36 35 a8 be 81 c0 62 40
       -0.9903232 21.752035 -0.32853097 3.5429995
000050 06 7e c3 41 d7 a6 d5 3e 3c f0 a8 3e e2 5d 81 40
       24.436535 0.4172885 0.32995784 4.0427103
000060 d7 38 ae c0 1b b9 b2 3e 62 50 27 bf 63 9b 77 40
       -5.4444385 0.3490685 -0.6535703 3.868859
000070 5c 37 6f 40 1e 54 16 c0 83 51 7d 40 71 94 70 40
       3.7377539 -2.348884 3.9581 3.7590601
000080 1b 8b ad 41 bc 42 b5 3e a6 20 7b 40 ee a7 a9 be
       21.692923 0.35402477 3.9238677 -0.33135933
000090 80 1a 5f bf f5 c2 8e be dd 10 21 c0 32 d9 a4 3e
       -0.8714981 -0.27883115 -2.5166543 0.32196957
0000a0 ad e5 b6 be 6b 97 30 bf cb 7f b9 be ca 99 78 40
       -0.35722104 -0.68981045 -0.3623031 3.8843865
0000b0 4f 82 8d be c6 b8 a0 3e a1 ac 8d be 65 81 9f 3e
       -0.2763848 0.3139097 -0.27670768 0.31153408
0000c0 bd f8 6d 40 1d 48 7c 40 35 58 79 40 dd 66 17 3f
       3.7183068 3.9419014 3.8960087 0.5914133
0000d0 9d ef 66 40 e5 55 85 41 db cc 88 be 3e aa e3 be
       3.6083748 16.66694 -0.26718792 -0.44465822
0000e0 ff 26 da bf 95 4d ce 3e 9a 09 ac 3e a1 7d 81 bf
       -1.7043151 0.40293565 0.33601075 -1.0116464
0000f0 9c 23 9a 3e 0b 2b 77 40 16 86 15 c0 f5 99 11 bf
       0.30105293 3.8620021 -2.336309 -0.56875545
000100 ac 85 83 be f6 c9 a5 3e e3 b5 87 be 76 02 87 be
       -0.2568792 0.32380646 -0.26505956 -0.26369065
000110 fd 51 13 c0 90 cf 7f 40 83 b9 68 40 77 41 7d 40
       -2.3018792 3.9970436 3.6363227 3.9571207
000120 10 03 21 bf 88 12 41 bf 8b 37 84 40 66 a3 8a be
       -0.628953 -0.754189 4.13178 -0.27077788
000130 9c 08 80 40 ad 76 ef be 16 ff 81 be 36 df 7f 40
       4.001051 -0.4677023 -0.25389928 3.9979987
000140 9f e3 76 40 d3 6e 0d bf 72 07 a1 3e 68 e1 a8 be
       3.857643 -0.5524723 0.31450993 -0.3298447
000150 36 cc d1 bf fe 90 9d be 45 b6 bc c0 9c 1d 72 40
       -1.6390445 -0.30774683 -5.8972497 3.7830572
000160 e7 14 57 42 e3 ce 86 41 c9 5c f4 bf bd 9c 83 40
       53.770412 16.851019 -1.9090816 4.112883
000170 af ae af 3e a4 e7 ca 3e 12 32 00 bf d3 12 a1 3e
       0.3431296 0.39629853 -0.500764 0.31459674
000180 24 d2 83 40 fd fe 77 40 f6 48 8c 41 5b b5 a1 be
       4.119402 3.8749382 17.535625 -0.31583676
000190 e4 23 7e 40 02 db 32 bf cb 36 b8 3e d9 4a c2 c0
       3.9709406 -0.6986543 0.35979304 -6.0716367
0001a0 aa 54 91 be 17 48 a3 be d5 98 ab 3e b7 c7 7c 40
       -0.28384906 -0.31890938 0.3351504 3.9496896
0001b0 6f b1 a3 41 7f 75 91 be 2e 05 bf 40 8f d9 9b c0
       20.461637 -0.28409955 5.9693823 -4.8703074
0001c0 35 d1 85 40 f9 d3 91 be 28 68 92 be df 28 40 3f
       4.181788 -0.28482035 -0.2859509 0.75062364
0001d0 9f 20 57 bf b4 28 cf 3e ff 25 9b 41 48 23 d4 3e
       -0.8403415 0.40460742 19.393553 0.41433167
0001e0 5e 3a a9 be ef a9 ab 3e 30 c4 67 40 34 25 b0 be
       -0.33052343 0.33528087 3.6213493 -0.34403384
0001f0 5b 02 77 40 29 e4 9a c0 3a 8d 71 40 e8 51 53 3f
       3.8595188 -4.8403516 3.7742448 0.82546854
000200 62 19 b2 3e e4 6b a2 41 6d c3 a4 be 5f 3d f2 3e
       0.3478499 20.302681 -0.32180348 0.47312447
000210 db 6b d2 3e 11 ec e6 be af b5 6e be f6 b6 59 bf
       0.41097912 -0.4510198 -0.23311494 -0.850448
000220 64 c0 bc 3e b8 9e ad 3e 60 af 9b 3e ad 74 96 be
       0.36865532 0.33910155 0.30407238 -0.29385892
000230 c1 42 ae be 6d 89 90 be bf 27 ae 3e 0c 4a 6e 40
       -0.34035304 -0.28229848 0.340147 3.7232695
000240 81 93 bc 3e b1 c2 31 c0 78 30 16 bf f2 16 a4 3e
       0.36831287 -2.777508 -0.5866771 0.32048756
000250 6f 79 ad c0 b5 d0 cc c0 d9 be 26 bf 79 99 7a be
       -5.4210734 -6.400477 -0.6513496 -0.24472608
000260 0c a7 aa 3e 04 d0 79 40 8c 5f b3 3e df ba 78 40
       0.33330572 3.9033213 0.35033834 3.8864057
000270 a1 0f 4d bf 16 31 a3 3e 17 98 00 bf 1e a2 70 40
       -0.8010197 0.31873387 -0.5023207 3.7598948
000280 32 c8 a9 3e 54 95 6b 40 8b ee c6 c0 b2 f5 7d 40
       0.3316055 3.6809893 -6.216619 3.968121
000290 48 7e e1 3e 9b b3 f0 3e 19 79 ad 3e 41 dc 6e 40
       0.44041657 0.47012028 0.33881453 3.7321932
0002a0 c9 32 8a 40 48 fa 75 40 f9 cc b1 be 81 ce 16 bf
       4.3186994 3.843401 -0.34726694 -0.5890885
0002b0 3b 61 a5 be 4c 33 b5 3e 1f 1a 3a c0 f4 c4 2d bf
       -0.32300743 0.353907 -2.9078443 -0.6787865
0002c0 a4 e5 2a bf 13 f5 b5 be ac ff 83 40 41 28 98 3e
       -0.66756654 -0.3553854 4.12496 0.2971821
0002d0 44 c7 78 be 68 e6 b1 3e f1 33 81 40 2a 99 fb bf
       -0.24294764 0.347461 4.0375905 -1.9656117
0002e0 86 b7 c2 c0 88 a8 a2 be c5 ed 56 bf ea 0c 8f 40
       -6.084903 -0.31769204 -0.8395656 4.4703264
0002f0 e6 c2 80 40 5c 13 14 c0 96 cd 1c bf 64 42 fa be
       4.0237913 -2.3136816 -0.612512 -0.48878777
000300 87 4d b6 3e 17 85 d1 3e bd 4b e1 be 9d 9b 29 bf
       0.35606024 0.40921852 -0.44003096 -0.6625307
000310 67 88 54 40 53 79 c4 c0 6b 42 f1 3e db e3 a8 3e
       3.3208253 -6.13981 0.47120985 0.3298634
000320 d4 e0 8e be d2 da b8 3e 00 8d a4 3e 28 2e 9f be
       -0.27905905 0.36104447 0.32138824 -0.31089902
000330 21 cd 0f bf c5 3b ac be ed 96 a3 3e 40 9a ba be
       -0.56172377 -0.3363935 0.31951085 -0.36445808
000340 45 e0 78 be 64 b4 80 40 c4 58 a6 be 85 b4 7c be
       -0.24304302 4.0220203 -0.32489598 -0.24678238
000350 d6 84 ad 3e e4 5e af c0 59 72 32 40 8a cf 8c be
       0.33890408 -5.4803333 2.7882292 -0.2750209
000360 9e 33 74 40 ba 64 5d bf c3 ab ae 3e cc e4 c1 3e
       3.8156505 -0.8648182 0.3411542 0.3786987
000370 b3 5e 8c c0 ac f3 0f bf eb 24 ac 3e 6a 28 74 be
       -4.38656 -0.5623119 0.33621916 -0.23843542
000380 39 6c de 3e 95 3a 07 bf 02 9f 28 bf 80 7e c7 c0
       0.43441942 -0.52823764 -0.65867627 -6.234192
000390 0e 4b 71 40 1e 97 b0 be 4b 25 8d be 96 97 75 be
       3.770206 -0.34490293 -0.27567515 -0.23983607
0003a0 dc 48 cf c0 ca 8b c4 3e 57 2f 88 be 44 1a c7 c0
       -6.477644 0.383879 -0.26598617 -6.2219563
0003b0 cf 13 b9 3e e6 06 ae be 49 da 02 bf 90 7e 77 40
       0.36147925 -0.33989638 -0.51114327 3.8670998
0003c0 a5 be 79 40 52 c2 8e be a2 b9 c7 bf a4 8f b8 be
       3.902261 -0.2788263 -1.5603526 -0.3604709
0003d0 27 16 83 40 37 a2 80 40 d5 ef 3b bf 63 d0 a1 c0
       4.096454 4.0198016 -0.7341283 -5.056688
0003e0 b5 b4 84 40 78 32 72 40
       4.147059 3.7843304

first_layer.0.bias f4 [250]
000000 d7 e5 e3 3f 38 dd bc bf e5 23 8f 41 c7 82 07 c0
       1.7804517 -1.4755011 17.892527 -2.117357
000010 12 75 bd 40 72 2a 8d c0 2d 29 9f 40 f2 aa d1 40
       5.920541 -4.4114313 4.9737763 6.5521173
000020 78 46 a8 40 b8 b6 87 c0 84 24 b3 40 1f 75 16 c0
       5.258602 -4.2410545 5.5982075 -2.3508985
000030 77 2c f9 40 28 81 d7 40 9f 46 e4 3f 26 33 e8 3f
       7.786678 6.734516 1.7834052 1.8140609
000040 05 1c 10 41 d8 cf 6b c0 6f 7d ea 3f d9 f7 7e c0
       9.006841 -3.6845608 1.8319529 -3.9838774
000050 48 20 84 c0 41 c4 3b c0 ca f7 df bf ca 62 96 c0
       -4.1289406 -2.9338534 -1.7497494 -4.699559
000060 57 70 e4 40 9f 66 01 c0 56 01 b4 40 bc 99 8e c0
       7.1387134 -2.0218885 5.625163 -4.4562664
000070 c1 5c 89 c0 74 33 d0 40 20 1a 92 c0 fb ae 8a c0
       -4.2925725 6.506281 -4.565689 -4.33386
000080 6f bb 6a c0 90 7b 07 c0 23 3e 90 c0 24 8a ef 3f
       -3.66769 -2.1169167 -4.507585 1.8714032
000090 bc c9 fa 40 02 b3 80 3f 84 c4 d9 40 4f a2 d1 bf
       7.837126 1.0054629 6.8052387 -1.6377658
0000a0 7d 42 0f 40 d8 ec bf 40 c6 55 13 40 70 03 8f c0
       2.2384331 5.9976616 2.3021102 -4.4691696
0000b0 9b 37 71 3f 77 79 c4 bf ff 81 76 3f 98 1b b8 bf
       0.9422547 -1.5349568 0.9629211 -1.4383421
0000c0 aa b9 87 c0 1e f2 90 c0 df f9 8e c0 1b 79 9c c0
       -4.241414 -4.5295553 -4.468002 -4.8897834
0000d0 07 f2 81 c0 a6 01 15 c0 fd 67 47 3f d5 11 53 40
       -4.0607944 -2.3282256 0.7789305 3.2979634
0000e0 62 0e 98 40 c5 84 2e c0 20 85 ec bf d3 87 13 41
       4.7517557 -2.7268536 -1.8478127 9.22066
0000f0 5f 81 a7 bf fe 57 8d c0 a5 94 d2 40 4b fe 96 40
       -1.3086356 -4.416991 6.580645 4.7185416
000100 b9 f6 07 3f b7 df d4 bf ce d1 3b 3f 1c 0a 33 3f
       0.53110844 -1.6630772 0.7336701 0.699373
000110 d0 43 c9 40 61 85 93 c0 98 02 86 c0 6a 03 92 c0
       6.289528 -4.6100316 -4.1878166 -4.5629168
000120 64 9f ab 40 c2 1a d5 40 30 d0 99 c0 36 5b 58 3f
       5.363207 6.6595163 -4.8066635 0.84514177
000130 bd dc 93 c0 45 4e 64 40 00 b7 ed 3e 2a da 93 c0
       -4.6206956 3.5672772 0.4642868 -4.6203814
000140 f4 bd 8c c0 4b fc 90 40 9c c6 bf bf c1 75 ed 3f
       -4.3981876 4.5307975 -1.4982486 1.8551561
000150 24 48 93 40 7b 8e c0 3f 04 06 f4 40 fa fa 8b c0
       4.602556 1.5043482 7.6257343 -4.374387
000160 0b b5 e1 bd 35 82 1c c0 c0 36 a9 40 ad d5 98 c0
       -0.11020859 -2.4454472 5.2879333 -4.7760835
000170 e6 b1 f9 bf d2 13 29 c0 22 3f 7c 40 84 d1 c3 bf
       -1.9507415 -2.6418347 3.9413533 -1.5298314
000180 37 c2 99 c0 5b 69 8e c0 83 db 3c c0 2d 5a d1 3f
       -4.804958 -4.450361 -2.950898 1.6355644
000190 67 8c 92 c0 82 30 c3 40 f5 6e 0d c0 c8 a6 fa 40
       -4.579639 6.0996714 -2.2098973 7.832859
0001a0 b0 ec 8b 3f 4e 87 d7 3f 2a 54 eb bf ce e6 90 c0
       1.0931606 1.6838167 -1.838506 -4.5281744
0001b0 68 79 5f c0 5a b0 8c 3f e4 7e 57 c0 83 87 d6 40
       -3.491785 1.0991318 -3.3671198 6.704042
0001c0 6d 9a 9c c0 4f 13 8f 3f 8d 95 90 3f 64 db d1 c0
       -4.893851 1.1177768 1.1295639 -6.558031
0001d0 c2 c7 f0 40 8b 1a 34 c0 80 b0 53 c0 d8 75 38 c0
       7.5243845 -2.81412 -3.3076477 -2.8821926
0001e0 2b b0 ed 3f e6 2b eb bf d7 56 83 c0 36 7c 03 40
       1.8569387 -1.8372772 -4.1043506 2.0544562
0001f0 37 40 8e c0 0e 9f d5 40 c3 29 89 c0 4e f7 e9 c0
       -4.4453387 6.675666 -4.286348 -7.3114386
000200 48 9c 01 c0 84 33 5f c0 c5 f8 dc 3f 6d bb 67 c0
       -2.0251637 -3.4875193 1.7263418 -3.6208146
000210 ac ff 37 c0 ff b9 57 40 73 ba 0b be 90 05 f4 40
       -2.87498 3.3707273 -0.13645343 7.625679
000220 f3 04 15 c0 66 79 f0 bf 78 e8 a9 bf 4a 31 a2 3f
       -2.328427 -1.8787048 -1.3274069 1.2671292
000230 6d 36 ff 3f 2a 2d 88 3f 53 c2 f3 bf aa 80 87 c0
       1.9938484 1.0638783 -1.9043678 -4.234456
000240 c6 58 14 c0 23 60 ee 40 f8 a2 9c 40 3c 2c d1 bf
       -2.3179183 7.4492354 4.8948936 -1.6341624
000250 87 55 e3 40 d1 76 03 41 65 1a b3 40 6c aa 74 3e
       7.1041903 8.216508 5.596972 0.23893136
000260 0c f4 e6 bf f4 3b 8e c0 44 f8 02 c0 aa df 8e c0
       -1.8043227 -4.4448185 -2.046403 -4.4648027
000270 2b 3e e4 40 b2 64 c7 bf 60 3c 7f 40 0c 63 88 c0
       7.132589 -1.5577605 3.98806 -4.2620907
000280 d0 cd ea bf f0 25 86 c0 87 f3 ff 40 c0 15 92 c0
       -1.8344059 -4.192131 7.9984775 -4.565155
000290 c4 ae 4c c0 02 12 62 c0 42 e0 ef bf 91 bd 87 c0
       -3.1981668 -3.532349 -1.8740313 -4.2418904
0002a0 ba 00 a3 c0 28 56 8c c0 ad ab 06 40 8f 91 9d 40
       -5.0938387 -4.385517 2.1042283 4.9240184
0002b0 0c 9a e0 3f 8c d2 05 c0 ba ad ea 40 91 0d bc 40
       1.7547011 -2.0909758 7.333707 5.876656
0002c0 20 76 b8 40 33 5d 0d 40 85 ed 99 c0 a8 a9 a2 bf
       5.7644196 2.2088134 -4.810244 -1.2708025
0002d0 c2 f0 35 3e 3a dd 02 c0 4a 78 95 c0 29 2f b0 40
       0.17767623 -2.0447526 -4.6709337 5.505757
0002e0 ef 5b fa 40 41 11 d5 3f ef fd ef 40 94 24 aa c0
       7.8237224 1.664589 7.4997478 -5.316965
0002f0 61 fb 93 c0 7b 7a d1 40 4b 0b a6 40 cb 60 75 40
       -4.624436 6.546201 5.1888785 3.8340328
000300 60 00 09 c0 61 8f 33 c0 85 42 4f 40 55 9f b6 40
       -2.140648 -2.8056262 3.238435 5.7069497
000310 60 33 6e c0 6f 14 fd 40 d5 33 64 c0 e1 68 e2 bf
       -3.7218857 7.9087443 -3.5656636 -1.7688257
000320 b2 3c 7e 3f f3 c7 0c c0 80 f0 d2 bf a8 06 c7 3f
       0.99311364 -2.199704 -1.6479645 1.5548906
000330 7c 47 94 40 98 f0 f8 3f 18 0b c9 bf 6f 87 15 40
       4.633726 1.9448423 -1.570651 2.3363912
000340 d7 a4 3e 3e bb b8 94 c0 92 69 e3 3f 43 d8 91 3e
       0.18617569 -4.64755 1.7766593 0.28485307
000350 71 5d f0 bf 78 74 e5 40 23 7a 4e c0 56 9d 6f 3f
       -1.8778516 7.1704674 -3.2262046 0.9359945
000360 20 79 8a c0 66 bd f8 40 3f 7a f4 bf 1b 43 1c c0
       -4.327286 7.77312 -1.9099807 -2.4415958
000370 32 8a cd 40 05 68 94 40 92 ae ec bf ac 27 8b 3d
       6.4231195 4.6376977 -1.8490775 0.06794676
000380 82 5c 48 c0 60 ce 88 40 2b ad b5 40 25 20 00 41
       -3.1306462 4.2751923 5.6773887 8.007848
000390 b8 bd 89 c0 7e 01 04 40 08 78 6e 3f f2 82 a0 3d
       -4.304409 2.062591 0.93151903 0.07837476
0003a0 10 b1 04 41 28 7d 21 c0 ec c4 3a 3f c8 06 00 41
       8.293228 -2.523264 0.7295673 8.001656
0003b0 04 58 0e c0 9a 89 ff 3f ed ae 82 40 93 a0 8d c0
       -2.224122 1.9963868 4.0838532 -4.4258513
0003c0 a8 7d 8f c0 68 c5 7f 3f 97 92 8f 40 d6 be 11 40
       -4.484089 0.99910593 4.4866443 2.2772727
0003d0 58 3c 98 c0 72 2a 95 c0 f7 84 cd 40 c4 c5 da 40
       -4.757366 -4.6614313 6.422481 6.8366413
0003e0 16 c9 9a c0 ed d7 89 c0
       -4.8370466 -4.307608

hidden_layers.0.0.weight f4 [250, 250]
000000 89 46 ef bd d4 a5 e7 3d ff ce c6 3d c0 b5 08 3e
       -0.116833754 0.11310926 0.0970745 0.13350582
000010 4d 1c de be 68 d5 0e bc de cf e9 be ea e4 6d bf
       -0.43380967 -0.008717872 -0.45666403 -0.9292742
000020 96 56 21 3e 8b ef d2 3d 9a 8d d4 be 7b 3d 95 3d
       0.15755686 0.102995954 -0.41514283 0.07287117
000030 9f e8 52 be 00 23 69 3d a3 ff ad bd ae c4 c7 bd
       -0.2059655 0.056918144 -0.084960245 -0.097543105
000040 10 91 a8 3d 80 b8 92 3d 11 ea d3 bd 74 c1 b1 bb
       0.082307935 0.07164097 -0.10347379 -0.0054246727
000050 c8 80 14 3d 75 a8 92 3d d2 bf 47 3d 6d 11 ad 3c
       0.036255628 0.07161037 0.04876692 0.021126473
000060 30 33 a4 be 74 3e 3f 3e 08 ba b8 3c f4 f4 4f ba
       -0.32070303 0.18676168 0.022549644 -0.0007932924
000070 6c 56 91 3d c1 f9 6f bf b9 bc a1 3d bc 4a a1 3d
       0.07096562 -0.9374047 0.07897324 0.078755826
000080 7e 08 ce 3d 26 4c b6 3d ec d2 2d 3d a5 6f d4 bd
       0.100602135 0.08901243 0.04243748 -0.10372857
000090 8f 3a 14 3e 95 2e 79 bd 77 37 83 bf 24 a0 ff 3d
       0.14475463 -0.06083544 -1.0251302 0.12481716
0000a0 d5 6a 7c bc 43 f9 f7 be 66 e2 0a bd b0 c2 ce 3d
       -0.01540633 -0.4843236 -0.033907317 0.100957274
0000b0 3c c6 53 bd 8f 74 97 3d 89 0a 51 bd 80 0f de 3c
       -0.051702723 0.07395279 -0.051035438 0.027107
0000c0 82 f8 84 3d a2 5a 25 3d 36 ea 18 3d d6 a2 21 3e
       0.064927116 0.040369637 0.037332736 0.15784773
0000d0 ea 86 c4 3d f2 4e 5f 3d 7a ff f6 bd 46 dc 04 3e
       0.09596045 0.054518647 -0.12060447 0.12974653
0000e0 3b b8 30 bf 1d 4a d8 3d d4 bd ee 3d 80 31 d6 3d
       -0.69031113 0.10561011 0.116573006 0.1045866
0000f0 97 ef 4e 3d 68 47 a7 3d 22 e8 77 bf c8 19 93 3d
       0.05052146 0.081679165 -0.9683858 0.07182652
000100 93 a6 6f bd 11 0d f7 3c 83 a9 ad bc 9a d4 3c 3a
       -0.058508467 0.030157598 -0.021198994 0.0007203311
000110 eb 23 76 bf 38 38 a0 3d f5 bf 01 bd 2d 99 b7 3d
       -0.96148556 0.07823223 -0.031677205 0.08964763
000120 1b 72 ec 3d 59 f5 95 3d 66 f4 50 bb f0 52 97 bc
       0.115452014 0.07322187 -0.0031883954 -0.018472165
000130 c0 e8 a0 3d 18 b2 fa 3c dc 01 8a bd e6 7a e0 3c
       0.078568935 0.0306025 -0.06738636 0.027402353
000140 a4 7d 94 bc 88 4c da 3c c8 bc c9 3d 79 4c f1 bd
       -0.018126316 0.026647821 0.0985046 -0.11782164
000150 a5 1b 48 bf 20 c1 89 bc f0 0a c4 be 98 98 97 3d
       -0.7816718 -0.016815722 -0.38289595 0.07402152
000160 95 c5 79 bc 18 a5 0d 3d 71 87 46 bf 1c ec 6c 3c
       -0.015244861 0.034581274 -0.7755042 0.01446059
000170 0d 0c 93 3d c4 02 6e 3d 43 b8 f9 bb 5a ae 82 3d
       0.07180033 0.058108106 -0.0076208427 0.06380911
000180 08 1f 92 3d ab 09 97 3d 5a a9 8a 3d 58 cb 9a bc
       0.07134825 0.07374891 0.067705825 -0.01889579
000190 bb d1 62 3b f1 e1 02 bf 28 4d bd 3d 0f fd 7e be
       0.0034609872 -0.5112601 0.09243232 -0.24901222
0001a0 c3 14 9f bc bd c8 a7 bc 40 b4 04 3e a6 1c a3 3d
       -0.01941908 -0.020481462 0.12959385 0.07964449
0001b0 b0 6b 87 3d 8f 34 36 bd df aa 9d bc 7b e0 d5 be
       0.06612337 -0.044483718 -0.019246517 -0.41772828
0001c0 60 37 62 bc 1b 92 5c bc 3e 41 d5 bd 1a c9 83 3d
       -0.013807148 -0.013462569 -0.104128346 0.064348415
0001d0 ae f6 a7 3d bf 6a fa 3d 22 bd 85 3d 96 25 c2 3d
       0.08201347 0.122273915 0.06530215 0.09479825
0001e0 a0 8f bc bd 06 65 02 3d 9e bf 0a 3c 45 48 03 be
       -0.09207082 0.031834625 0.008468537 -0.12820537
0001f0 a3 72 43 3c 10 40 c3 be 6e c6 0e bb 50 5e ec 3d
       0.011929187 -0.38134813 -0.0021785754 0.11541426
000200 8e f0 48 3e b2 bc a5 3d b7 a5 85 bd 74 92 09 3e
       0.19623014 0.080926314 -0.06525748 0.13434774
000210 ac 81 8c 3d e7 e3 79 bb c1 3b 1c bd 84 a6 fc 3d
       0.068606704 -0.0038130225 -0.038142923 0.12336448
000220 85 5c a5 3d 40 9d 3c 3e 5f a1 24 3d 1f f4 a8 bd
       0.08074287 0.18419361 0.040192958 -0.082496874
000230 0a b4 65 3c ed cb 67 bd c1 d7 89 3d c5 45 5e 3d
       0.014019975 -0.056590963 0.06730605 0.054265756
000240 ce 2d 99 3d c2 a1 85 bf 5f 30 0e bf 4e 22 ef 3c
       0.0747944 -1.043999 -0.5554256 0.029191162
000250 9c ea c2 be f3 6d 51 be e2 e7 6d 3d 9f 9a ab bd
       -0.38069618 -0.20452099 0.05808247 -0.08379101
000260 65 46 bd 3d b9 2a d7 3c 21 8f be 3d be 0c 9b 3d
       0.09241942 0.026265489 0.093046434 0.0757079
000270 c5 f6 1e 3e 3c 52 b1 3d 3a 78 02 3e 2a 7b 93 bc
       0.15523823 0.08658263 0.12741175 -0.018003065
000280 90 ac 3e 3d 5e 70 2e 3d dc 66 88 be 04 dd 5c 3d
       0.046551287 0.04258763 -0.26640975 0.053921714
000290 4a d7 b9 3d c1 03 6e 3d df e7 29 3e e5 59 b7 3c
       0.09074266 0.05810905 0.16592358 0.022381732
0002a0 fb e1 ba 3d cd d2 a1 3d c4 3b 79 bd 7d fc e9 be
       0.091251336 0.07901535 -0.060848013 -0.45700446
0002b0 87 12 37 bb c9 66 12 3e 05 4b 85 bf 79 8a 03 bf
       -0.0027934627 0.14297022 -1.0413519 -0.5138317
0002c0 63 81 dd 3d 47 89 0b bd c8 93 be bc 03 25 b0 3d
       0.10815694 -0.034066465 -0.023263827 0.086008094
0002d0 19 57 df bd 57 f8 4d 3d 94 15 0c 3d ae 9a 54 bf
       -0.109052844 0.050285663 0.034200266 -0.8304852
0002e0 3b 2b 83 be a1 a0 ff bd 3b d3 24 bf c5 4f 08 3d
       -0.2561892 -0.124818094 -0.6438481 0.0332792
0002f0 e2 7f 14 bc 0f 06 5a bf d6 be 07 3e f7 f0 bb 3d
       -0.009063693 -0.85165495 0.13256392 0.0917682
000300 56 8c 35 3d 6a 52 98 3c b6 ec a0 3d 6f c3 0c bf
       0.044323288 0.018593986 0.07857649 -0.5498571
000310 63 ea ad 3d ff 54 ad be 2b 45 b4 3d 35 76 0a 3e
       0.08491971 -0.3385391 0.08802255 0.13521655
000320 19 a7 7e bd a6 ac fb 3d 5f 6b ac 3d 23 75 b7 bd
       -0.062171075 0.122887895 0.08418917 -0.08957889
000330 a4 12 00 bf 4e b1 7b 3c d5 dd 05 3e 08 a7 75 bd
       -0.50028443 0.015362097 0.13072903 -0.059973747
000340 48 a6 f3 bd 95 e4 8b 3d 36 e5 0e be 18 61 43 bd
       -0.1189695 0.06830708 -0.13954625 -0.047700018
000350 05 75 30 3d 28 0d b0 be 26 6f 4d 3d 3d 9e 34 bd
       0.04308035 -0.34385037 0.050154828 -0.04409622
000360 fc 78 b4 3c e8 3f d7 3d 98 08 83 3d 19 17 ab 3d
       0.022030346 0.10510236 0.063981235 0.08354015
000370 82 6b 08 bf a9 f1 ec be 81 59 20 3e ff b0 af bd
       -0.53289044 -0.46278122 0.15659143 -0.08578681
000380 0b bb 4d 3d 44 ad 9e be c7 32 0e bf ad 44 85 be
       0.050227206 -0.30991566 -0.5554623 -0.26028958
000390 4d 54 a1 bb 1d 44 9d bd fb 0d b1 bc 61 01 4f bd
       -0.0049233795 -0.07679007 -0.021613112 -0.050538424
0003a0 43 96 80 be bd 16 50 3c ea 6e 97 39 62 e5 9d be
       -0.2511464 0.012700734 0.00028883602 -0.30839068
0003b0 87 74 3c 3d 42 79 e1 bd 13 9c fb 3d 6b 7c 5b 3d
       0.046009567 -0.11009456 0.12285628 0.05358545
0003c0 5e 30 08 3d 64 b0 09 be 1a 07 2a bf 23 da 99 bd
       0.03324925 -0.13446194 -0.66417086 -0.075123094
0003d0 e2 64 4b 3d 48 3f 42 3d 81 ef d5 be 52 ff bf be
       0.049656756 0.04742363 -0.4178429 -0.3749948
0003e0 f7 38 fc bb f0 36 ba 3d b8 e7 79 3e ec 12 5f 3f
       -0.0076972204 0.0909251 0.244048 0.8713825
0003f0 5d 75 aa 3e a0 9d 7c 3f 55 0b 6a c0 34 2f 0a 3f
       0.33292666 0.98678017 -3.6569417 0.53978276

hidden_layers.0.0.bias f4 [250]
000000 f9 7c ba 3d d1 5f f9 3e 70 bc 56 3e 8f a8 08 be
       0.09105868 0.48705915 0.2097032 -0.1334555
000010 fe 7b 63 bd ca 5f ad bd 42 c8 49 3d 37 25 26 3d
       -0.05553817 -0.08465536 0.049263246 0.040562835
000020 5f 1f 41 3e 2b ca a4 3d a3 48 4a 3d 63 d8 36 3c
       0.18859623 0.08046373 0.049385678 0.011159989
000030 eb 96 20 3e 3f 3e f9 3e 77 3e 3d bd 23 09 cf 3d
       0.1568257 0.48680303 -0.04620215 0.101091646
000040 03 6b 24 be c5 da b0 bc 09 9d 15 bd 64 0d c1 bd
       -0.16056447 -0.021588692 -0.036526714 -0.09426382
000050 9c 3d 35 3f 10 3d 1d 3c 32 10 10 be 04 db 1e be
       0.70797133 0.009597078 -0.14068678 -0.15513235
000060 25 5f 08 be 7a a0 19 3e a3 fd dc 3d 06 c1 34 bd
       -0.13317545 0.15002623 0.10790565 -0.044129394
000070 c3 e9 26 be 06 a5 1a be 7b 58 10 be 4f 39 c3 bd
       -0.1630011 -0.15102014 -0.14096253 -0.09532415
000080 0a ed f1 3d 71 f9 b8 bd 14 73 4f bd 7e b7 fd 3d
       0.1181279 -0.09031952 -0.050646856 0.12388514
000090 a9 75 1f be 46 4b 41 bb 53 7c 07 bd 60 b4 ef 3e
       -0.15572228 -0.002949433 -0.03307755 0.46817303
0000a0 0b c5 62 ba af 83 3e 3d 7f 09 c2 bd 4e a1 02 be
       -0.00086505775 0.046512302 -0.094744675 -0.12756845
0000b0 fe c5 74 bc 43 27 a6 3d a2 10 63 3d bb 5b ad bd
       -0.014939783 0.08112957 0.055435784 -0.08464762
0000c0 1f 1b c4 3c 50 d2 ec bc f1 42 81 3d e9 86 ad bd
       0.023938714 -0.028908879 0.06311596 -0.08472998
0000d0 5b d3 12 be 3f 34 e8 3b ac 90 05 be 8c 0e 38 3e
       -0.14338438 0.0070863063 -0.13043469 0.17974299
0000e0 5c 15 48 bd 98 87 1e bd 0c 41 e7 3d 9a c7 92 bd
       -0.048848495 -0.03870353 0.112917036 -0.07166977
0000f0 0e 2c 0c be 97 d6 fe bd e2 16 41 3c de f8 d4 bd
       -0.1368868 -0.124432735 0.011785241 -0.1039903
000100 2e 92 a2 3d d5 61 b5 3c c7 04 61 3e f9 18 9e bd
       0.07938038 0.022141377 0.21974479 -0.07719607
000110 c8 11 18 be 93 de 73 3d 71 25 5b 3e 22 f5 dc 3d
       -0.14850533 0.059538435 0.21401002 0.10788943
000120 65 b9 83 bd f9 2a c7 bf f3 57 3d 3e b9 ab e8 3c
       -0.064318456 -1.5559989 0.18490581 0.028402196
000130 b9 c8 06 be 46 01 f9 bd c6 6f 96 bd c5 4d 41 bd
       -0.13162507 -0.12158446 -0.07345538 -0.047193307
000140 e3 9b 62 3d e9 a8 0c be 60 9d 0e be 2b 16 1c 3e
       0.055324446 -0.13736309 -0.13927221 0.15242831
000150 73 77 91 3e cb 85 19 bd 2c 4d ab 3d 3f c4 ef 3d
       0.28411445 -0.03748111 0.08364329 0.11707353
000160 92 25 9c bc 1f fd b7 bb be 4c b8 bc 9b 40 c1 bd
       -0.019060884 -0.005614891 -0.022497531 -0.09436151
000170 8d ce ac bd da e9 11 3e ef 36 d5 3d e4 35 b5 3d
       -0.08437834 0.14249364 0.104108684 0.088481694
000180 5d 1e 1a be eb 1b 4d bc d4 ce b5 3d 7f e7 9c bf
       -0.15050645 -0.012518863 0.0887734 -1.2258147
000190 14 6a 04 3d 2a 62 87 bd 39 ef 08 bd d3 49 f4 bd
       0.032327726 -0.0661052 -0.033431266 -0.11928143
0001a0 de 51 50 bd 61 14 57 3c 18 e5 d9 bd 58 82 b7 3e
       -0.050859325 0.013127417 -0.10639399 0.35841632
0001b0 26 88 2e bc 9c 3d 1a 3c 25 02 8f bd 2e d7 1a 3f
       -0.0106525775 0.009414103 -0.06982831 0.6048459
0001c0 31 bd 00 be a0 ab 9a be c9 29 6b bd b5 bd 11 3c
       -0.12572171 -0.30209064 -0.057412896 0.008895327
0001d0 3e de 36 3c 6c 31 c6 bd a4 ed ea 3e 3f ac 9a 3d
       0.011161385 -0.09677395 0.4588443 0.075523846
0001e0 30 7e 79 bc 55 37 14 be 0e d4 98 bd fa 90 0b be
       -0.015227839 -0.14474232 -0.07462321 -0.13629523
0001f0 18 ea 92 bd 37 f0 69 bd 0e c3 b9 bd 4e c7 e1 3d
       -0.07173556 -0.057113852 -0.09070407 0.110243425
000200 9f da b1 3d 6d 52 95 3d 2d 0c c4 3d 34 ea 02 bd
       0.08684277 0.07291112 0.09572635 -0.031961635
000210 49 e5 7a 3d 00 1d fb 3c f8 94 c4 3e ee bc df bd
       0.06125382 0.030653477 0.38394904 -0.10924707
000220 70 fd e7 bd 84 85 16 be e6 5f a9 3d 62 e8 11 bf
       -0.11327636 -0.1469937 0.08270244 -0.56995213
000230 97 1f 69 bd 4f 03 d8 bd 24 ef 3c 3e cb 35 6f be
       -0.056914892 -0.10547506 0.184506 -0.23360364
000240 49 dd 12 3e 82 cb d6 bd 8f 7a 27 bc 5b b4 5e bd
       0.14342226 -0.10488035 -0.010222091 -0.05437122
000250 76 cd 7e b9 09 1f 90 bd 47 93 a8 bd c8 63 05 3d
       -0.00024299868 -0.070371695 -0.08231216 0.032565862
000260 56 56 77 3c c2 00 9e 3e ad c3 35 bd 23 87 83 bd
       0.015096268 0.30859953 -0.044376064 -0.0642226
000270 61 9d 01 be cb 05 a7 bc f7 cb 1f 3f 1c ac 22 be
       -0.12657692 -0.020388504 0.624206 -0.15885967
000280 9f 6f 24 be d1 23 8e bd 0e 05 98 3d 35 85 c8 bd
       -0.16058205 -0.06940425 0.07422839 -0.09791032
000290 05 e5 88 bd 1e f0 e3 bb ee 89 a5 bd d3 59 95 3d
       -0.06684307 -0.0069561144 -0.080829486 0.07292523
0002a0 e0 d7 15 3d 48 7a e0 bd 63 d1 d7 bd fe 11 b4 bb
       0.036582828 -0.10960823 -0.10537984 -0.005495309
0002b0 70 89 32 bf 82 71 2f bd ed c8 ea 3d 84 7a 29 bb
       -0.69740963 -0.04283286 0.11464105 -0.0025860379
0002c0 d9 62 92 3d 1a 5a b8 3d 05 8a 04 3f ed 72 7a bd
       0.0714776 0.090015605 0.517731 -0.061144758
0002d0 03 8a 64 3d 27 fd 2e be be ed cc bc df f8 a7 bd
       0.05579568 -0.17088757 -0.025015708 -0.08201765
0002e0 e6 c2 57 bd ea fb 55 3d 5d b2 46 bd ce f8 00 3f
       -0.052676104 0.052242197 -0.048509944 0.50379646
0002f0 5d 6c 18 bc 3c 30 9c 3b 56 cb c1 bd 58 ae 08 be
       -0.00930318 0.004766492 -0.094626114 -0.13347757
000300 97 82 d7 bb bb e0 16 be 15 0f fa bd ff 0b 0f 3e
       -0.006576847 -0.14734165 -0.12209908 0.1396942
000310 3a 65 26 bd a7 e8 5f bd ac 27 b1 be 82 a2 14 be
       -0.04062388 -0.054665234 -0.3460058 -0.14515117
000320 54 d9 b2 3e ea f7 13 be 94 c4 df bd 04 fd c0 bd
       0.34931433 -0.1445004 -0.10926166 -0.09423259
000330 54 c1 6c bc 72 c9 d6 bd 89 04 a5 bd d3 57 ca 3d
       -0.01445039 -0.104876414 -0.08057506 0.098800324
000340 fd 2f 1b be ad 1e 31 3d c3 ab 50 be 7b 1c 1b be
       -0.15155025 0.043242145 -0.20378022 -0.15147583
000350 fc 8f 33 bd fa bd 54 bd c1 74 e7 bc 88 9b e8 bd
       -0.043838486 -0.05193899 -0.028253915 -0.1135779
000360 e2 51 4c bd c9 49 18 3e de 05 1d bd 0f 47 12 3c
       -0.049882777 0.14871897 -0.038335674 0.0089280745
000370 bc c7 9a 3d a8 af 99 bd aa e0 ce bd 0b fa 86 be
       0.075576276 -0.07504207 -0.10101445 -0.26362643
000380 72 6c ba 3c 0e 4c 16 3e af 98 5c 3d 37 39 29 3c
       0.022756789 0.1467745 0.053856548 0.0103285825
000390 a9 df cb 3e 5a 7a 93 bc 64 5f 20 be ce 4c af 3e
       0.39819077 -0.018002678 -0.15661389 0.34238285
0003a0 a4 07 71 3e d3 aa 45 be 14 83 bf bd cf 73 30 3e
       0.23538071 -0.19303446 -0.09351173 0.17231677
0003b0 a6 20 72 bd c4 40 63 3c 14 1f 9e 3d 8e bd 9b 3d
       -0.059113167 0.013870422 0.077207714 0.07604514
0003c0 bd 76 c5 3c 62 e9 b1 bd 23 da 99 3d 4c f1 af bd
       0.02410447 -0.08687092 0.075123094 -0.085909456
0003d0 50 37 65 bd 5f 55 14 3c e4 3b 1f 3f c0 e5 1a bd
       -0.055960953 0.009053557 0.6220076 -0.037816763
0003e0 a9 00 3a be 5f 19 32 bf
       -0.18164314 -0.69569963

output_layer.weight f4 [1, 250]
000000 e1 ac 73 bd 96 ee 9c 3d c3 41 ee 3e 60 fd 1b be
       -0.059491042 0.07662694 0.46534547 -0.15233374
000010 3d 56 f3 bc a2 3d 9c bc b0 25 4a bd e9 b2 29 3d
       -0.029704208 -0.019072358 -0.049352348 0.041430388
000020 9b 48 d9 3e d3 80 30 3d 2d ea 62 3e 38 41 5f be
       0.42438206 0.043091606 0.22159643 -0.21802223
000030 db 41 72 3d 34 bc 00 bf 58 54 b6 bc 2a db c1 3e
       0.059144836 -0.50287175 -0.022257015 0.3786252
000040 c0 27 08 bd c0 37 5a bd 1e 71 ae 3d cd c6 f9 bc
       -0.033241034 -0.053275824 0.08517669 -0.030490303
000050 06 62 19 3e 65 e8 b7 bd 35 a0 77 bc 45 df a2 bc
       0.14978799 -0.089798726 -0.01511388 -0.019881854
000060 62 05 e7 bb 39 83 2c 3d 5c be 2d 3e 18 a7 2c bd
       -0.007050202 0.04211733 0.16967148 -0.04215154
000070 ff 5f e7 bc b4 92 0c bc 5c a8 bf 3d 5a 7a b5 3e
       -0.028244017 -0.008579899 0.09358284 0.3544491
000080 99 15 83 bd 8c 15 dd bd 1b a9 14 bd e0 54 83 3e
       -0.06400604 -0.10795125 -0.036294084 0.25650692
000090 e6 09 98 bc 9b 0c cd 3d 7b 31 1f bd ee cd c8 be
       -0.018559407 0.1001217 -0.038865548 -0.39219612
0000a0 e8 0a 46 3d 03 e3 5b 3d 59 ad 45 bd b8 ca cb bc
       0.048350245 0.053683292 -0.04826102 -0.024876937
0000b0 9e f1 37 bd 3a 2d 1e 3d be d6 b9 3d 26 18 18 bd
       -0.04490816 0.03861735 0.09074162 -0.037132405
0000c0 06 5e 6a 3d c5 bc 7a be 6d 2f b7 be 28 27 d7 bc
       0.057218574 -0.24486072 -0.3577837 -0.026263788
0000d0 c2 f1 ff bc 9c 08 b0 bd 96 c6 8e bc f9 85 14 40
       -0.031243209 -0.08595392 -0.017428678 2.320677
0000e0 3b 17 1a bd b0 da 9d 3d 91 5e 79 3d 59 e5 01 bc
       -0.03761981 0.07707727 0.0608812 -0.007928216
0000f0 f9 16 eb bc cc 2c 3e bd 42 02 af bd 9b a9 eb bc
       -0.028697478 -0.04642944 -0.085453525 -0.028767398
000100 46 d4 6a 3e f8 be a3 3d 9c 2e 26 be ce 3b c0 bc
       0.22932538 0.07995409 -0.16228718 -0.023466017
000110 a8 14 bd bc aa 62 eb be 5c e5 02 3f f3 56 3f 3e
       -0.023081139 -0.45973712 0.51131225 0.18685512
000120 36 f2 04 bd 86 24 cd be a8 85 ec 3e 7a f3 40 bd
       -0.032457553 -0.40066928 0.46195722 -0.047107197
000130 29 fa db bc 3e 84 e3 3d c5 bb 84 3d 34 01 92 bd
       -0.026852684 0.111092076 0.06481127 -0.07129136
000140 86 a1 8d be a8 b6 1d be 19 ee 05 bd 66 85 98 bd
       -0.27662295 -0.15401709 -0.03269777 -0.07447319
000150 98 1f 56 3e d9 22 02 3d bc 2c d5 3e af 44 91 bd
       0.2091049 0.031771515 0.41635692 -0.070931785
000160 e0 98 d6 bd 4b 16 4f be b1 2c 56 be 71 6c ab bc
       -0.10478377 -0.20223348 -0.20915486 -0.020925732
000170 b4 da cb bc 9c 41 9a bd 52 dd 42 3d d3 b9 94 3d
       -0.02488456 -0.07532045 0.04757435 0.07262006
000180 f6 99 e7 bc 75 47 b1 bd a4 b9 45 3d 05 c9 9d be
       -0.028271656 -0.086562075 0.048272744 -0.30817428
000190 d9 23 32 3d cc 30 04 be 54 68 9f 3d 78 08 47 bc
       0.04349122 -0.1290924 0.07783571 -0.012148015
0001a0 43 25 1e bd 6e 6a 40 3d 38 97 e4 bc 71 56 30 be
       -0.038609754 0.0469765 -0.027904138 -0.17220475
0001b0 11 16 a4 3d 58 55 08 3d 32 a1 59 bd 5a e4 18 3e
       0.08012021 0.033284515 -0.053132243 0.14930859
0001c0 60 97 b1 3d 5b 3c 02 bf 74 40 bc bc 7e 9d 51 be
       0.086714506 -0.50873345 -0.022979952 -0.20470235
0001d0 5f 32 89 3d f6 be c6 bd 3e 36 90 3e ab 9c 21 3f
       0.06699061 -0.09704392 0.28166384 0.6312968
0001e0 ca c4 1e 3d 7c 16 e1 bc c6 e1 da bc 80 6e bf bc
       0.03876189 -0.027476542 -0.026718985 -0.02336812
0001f0 61 e2 e6 bc aa 25 84 bd f8 43 f7 bc 2c fe 42 bd
       -0.028184118 -0.06452496 -0.030183777 -0.04760568
000200 22 ba a1 3d 23 99 8c bd 20 b1 7e be 91 b2 0e 3d
       0.0789683 -0.06865146 -0.24872255 0.034838263
000210 c6 b0 98 bd 7a c3 90 3d ac 99 94 3e ca 21 f3 bc
       -0.07455592 0.07068534 0.29023492 -0.029679198
000220 3a d0 85 bd 9b bc c9 bc 0d f4 90 bd ab 1f 5c be
       -0.06533857 -0.024626067 -0.07077799 -0.21496455
000230 cb e0 04 bd d3 64 1f bd fe a4 cd 3e 61 70 44 be
       -0.03244094 -0.038914513 0.40164942 -0.19183494
000240 94 67 4e 3e 1e a9 0a bd c8 d3 4c bd 39 1f e8 bd
       0.201567 -0.03385269 -0.050006658 -0.1133408
000250 ab 54 7f 3d 43 59 e9 bc cb 90 8d bd 81 8a 70 3d
       0.062336605 -0.028484946 -0.06912383 0.058725838
000260 6a c3 1f 3d 0e 91 1f c0 00 99 7c 3c 3f 8e f8 bd
       0.03900472 -2.4932284 0.015417337 -0.12136506
000270 fe be c8 bc 5d 22 7b bd c9 76 0b bf 4e d4 1b bd
       -0.024505135 -0.06131207 -0.54478127 -0.038044266
000280 f6 f1 ce bc 07 3e a8 bd b1 9f 60 be 84 49 1d bd
       -0.02526186 -0.08214956 -0.21935917 -0.038400188
000290 89 01 d1 bd 95 b6 4c bd de 1c 4a 3d 14 5e 92 3d
       -0.10205371 -0.04997881 0.049343936 0.0714685
0002a0 6c 3f f8 bd db 49 91 bd c4 48 3f 3b f7 86 8d bd
       -0.12121472 -0.07094165 0.0029187659 -0.06910508
0002b0 ce 9d d9 3e de 1f cc bc bf e5 49 3d b9 bd 78 be
       0.42503208 -0.02491754 0.04929137 -0.24291123
0002c0 50 ba 9f 3d a8 e1 77 3d 3d 2d 46 bf 77 86 ed bc
       0.07799208 0.060517937 -0.7741278 -0.028994782
0002d0 0d aa 0f 3e c4 3b e9 bc 97 e3 42 bd 6f 69 0f bd
       0.14029713 -0.028470881 -0.047580328 -0.03501266
0002e0 20 4d a9 bc 37 00 34 3e 09 a2 cc 3c ea f1 d9 bd
       -0.020666659 0.17578207 0.024979608 -0.106418446
0002f0 43 b8 bc bd 18 30 25 3d 04 e8 bb bc 0f f0 e4 bc
       -0.09214833 0.04032907 -0.022937782 -0.0279465
000300 75 e3 4c be 2a 5b 59 bc b3 ed d0 bc 57 36 4a 3d
       -0.20008643 -0.013266364 -0.025503969 0.04936823
000310 48 0b 03 bd be 84 b6 bc 40 5f 8d 3e 8c ef ce bc
       -0.03199318 -0.022280093 0.27611732 -0.02526071
000320 88 7d 0c 3e 6b 41 a9 bc 65 39 d6 bc d1 6c 8c 3d
       0.13719761 -0.020661077 -0.026150415 0.068566926
000330 42 99 a5 be d6 6c 9f bd 3f c0 bb bc ac 7d d2 3d
       -0.3234349 -0.07784431 -0.022918819 0.10277876
000340 bf 78 c7 bc d9 10 8b bd 37 bc 32 be f5 65 ba bc
       -0.024349568 -0.06790323 -0.17454611 -0.022753695
000350 c7 fc d9 bc db e6 7f 3c 53 f3 ac bd 16 04 85 bc
       -0.026609791 0.015619005 -0.08444848 -0.0162373
000360 69 ed b5 be 5b 7a 5b be 4f fd 17 bd c2 47 28 be
       -0.35532692 -0.21433394 -0.03710681 -0.16433623
000370 ef 71 9a 3d 88 51 72 bd c4 80 35 bd ff 5c cc c0
       0.07541262 -0.059159786 -0.044312254 -6.386352
000380 d8 39 b0 3e ca 68 a4 bd 39 03 9f 3d 84 df f9 3c
       0.3441913 -0.080277994 0.077642865 0.030502088
000390 cc 24 48 3e e0 3a 87 3d 38 94 01 bd 60 53 51 be
       0.19545287 0.066030264 -0.031635493 -0.20441961
0003a0 b9 53 8b bf 38 37 6f 3e 97 a1 04 bd 10 66 8d 3f
       -1.0884925 0.23360908 -0.032380667 1.1046772
0003b0 69 b0 6d bc cb 78 6e 3d b6 ae 0e 3d 4f 7d 20 be
       -0.0145073915 0.058220666 0.034834586 -0.15672801
0003c0 e8 dd ac 3d 33 b5 80 bd b6 45 99 bd 74 53 3c bd
       0.08440763 -0.06284561 -0.074839994 -0.045978025
0003d0 42 35 7c 3d 69 e4 85 bd dc 88 22 3e a9 b1 b1 3d
       0.061574228 -0.065377064 0.1587252 0.08676464
0003e0 f0 62 51 3e b5 66 c7 bd
       0.20447898 -0.09736387
