Models/hh_3_layers_300_nodes_1_ins1_outs.pth (torch, 729976 bytes, 7 tensors)

first_layer.0.weight f4 [300, 1]
0	0xc00f5b64	-2.239953
1	0x3e647d4b	0.2231342
2	0xbeaa56b2	-0.33269268
3	0x3fb23fab	1.392568
4	0xc03a99aa	-2.915629
5	0x4082aae1	4.0833592
6	0xc015cfcf	-2.3408086
7	0xc0a163e8	-5.0434456
8	0xc0d19fce	-6.5507574
9	0x3f4c766b	0.7986819
10	0xc05f4cbd	-3.4890587
11	0x3e7bb85b	0.24582045
12	0xc0f7e62d	-7.7468476
13	0xbeb07755	-0.34466043
14	0xc01cd292	-2.4503522
15	0xbe9ade7d	-0.3024787
16	0xc0bca9fa	-5.895749
17	0x4089f6f8	4.3113976
18	0xbea6b53c	-0.32560146
19	0x3e9c8ae1	0.30574706
20	0x40804eb3	4.009607
21	0x3e9d4b34	0.30721438
22	0x3e3e2016	0.18566927
23	0x4087ceb1	4.243981
24	0xbf0d3e05	-0.5517276
25	0x3eb2155d	0.34781924
26	0xbf146173	-0.57961196
27	0x40d92b36	6.786525
28	0x4092ba63	4.5852523
29	0xc05970e8	-3.3975163
30	0x4066c946	3.6060348
31	0x40606955	3.506429
32	0x3ea048e7	0.3130562
33	0x3e59d8e3	0.21274142
34	0x418e63d8	17.798752
35	0xbe8bf324	-0.2733394
36	0xc0c0c55c	-6.0240917
37	0xbfeeb58a	-1.8649151
38	0xbed1a007	-0.40942404
39	0x3e69b883	0.22824292
40	0xbe8cc781	-0.2749596
41	0xbea7459b	-0.32670292
42	0xbe771ec8	-0.24132836
43	0x40af2894	5.4737034
44	0xbe4c3cd9	-0.19945087
45	0x3e5b87e9	0.21438564
46	0xbe7b3814	-0.24533111
47	0x3e5c44dd	0.21510644
48	0x4084bfa2	4.1483927
49	0x408e6480	4.449768
50	0x3e4d1fb8	0.20031631
51	0x3e9350ba	0.28772527
52	0x3e8a478a	0.27007705
53	0x3ea22108	0.31665826
54	0xbe82217a	-0.25416166
55	0xbeb4a099	-0.35278776
56	0xc10160d6	-8.086142
57	0x40ad5601	5.4167485
58	0x3e6d6b4e	0.23185465
59	0xc050791f	-3.2573926
60	0x3e5e51f6	0.21710953
61	0x40a5c94f	5.180824
62	0xc05e136f	-3.4699361
63	0xc01ccb4d	-2.4499085
64	0xbff25e4a	-1.8935025
65	0x3e38e8b5	0.1805752
66	0xbeaada15	-0.33369508
67	0xbeaa4f4d	-0.33263627
68	0xbeacacdc	-0.3372563
69	0x3eb9d7cd	0.36297455
70	0x409842f0	4.758171
71	0x407bba9f	3.9332654
72	0xbeb23178	-0.34803367
73	0xbeb09fb3	-0.3449684
74	0x3ea26f50	0.3172555
75	0x3e881ac0	0.2658291
76	0x3e874f98	0.26427913
77	0xbea0334c	-0.31289136
78	0xbe547c1b	-0.20750467
79	0x40aee205	5.4650903
80	0x3e8721fb	0.26393113
81	0x3e583380	0.21113396
82	0x3e6d1616	0.23152956
83	0xbe984c63	-0.29745778
84	0xc0d204dc	-6.563093
85	0xbeafadf5	-0.34312406
86	0xc097a088	-4.738346
87	0x408c7e0d	4.390387
88	0x3e89e154	0.26929724
89	0x3e679f6d	0.2261941
90	0xbeaaa16b	-0.33326277
91	0x40838068	4.1094246
92	0x3ea29dec	0.3176111
93	0x40853e28	4.1638374
94	0xbfe345c5	-1.7755667
95	0x3ea29232	0.31752163
96	0x40b42c07	5.6303744
97	0x404c0673	3.1878936
98	0x40c34d4c	6.1031857
99	0xbe75ed0b	-0.24016206
100	0x40b2fedd	5.5936112
101	0xc0cf3da4	-6.4762745
102	0x3eae5c0d	0.34054604
103	0xbea815cc	-0.3282913
104	0xbe80740e	-0.25088543
105	0xbe903f25	-0.28173175
106	0x3e4a4dd6	0.19756255
107	0x40817f80	4.046814
108	0x41990480	19.127197
109	0x3f30205c	0.68799376
110	0x41e464a1	28.549135
111	0xbf21e2b5	-0.6323655
112	0x3ea8c563	0.32963094
113	0xbeade535	-0.33963934
114	0xbe6601f0	-0.22461677
115	0x3ea1bcec	0.31589448
116	0xc0bb3cbe	-5.851165
117	0x3e5e16a2	0.21688321
118	0x3e8544c6	0.26029032
119	0x4076c1cf	3.8555791
120	0xbeb4e4cd	-0.3533081
121	0x3e7ab440	0.24482822
122	0x4068d01e	3.6377025
123	0xc0201a3b	-2.501601
124	0x408042e5	4.008166
125	0xc02bfe7a	-2.687407
126	0x4061ea23	3.5299156
127	0x3ed63d4f	0.4184365
128	0x3e981e75	0.29710737
129	0x41b3bc67	22.466993
130	0xc01b1426	-2.4231048
131	0x3e8d0cc5	0.27548805
132	0x3e8611ef	0.26185557
133	0xc097da69	-4.7454114
134	0xbe7c3d17	-0.24632679
135	0xbea5ee38	-0.3240831
136	0x3e8a07ec	0.2695917
137	0x3e8f86a7	0.2803242
138	0x3e4dd781	0.2010174
139	0xbfed5534	-1.8541627
140	0x3e8a7e23	0.2704936
141	0xbebb7446	-0.36612147
142	0x3eaa66e4	0.33281624
143	0x40b17587	5.5455966
144	0x3e7c569d	0.24642415
145	0xc02305c2	-2.5472264
146	0xbea49a35	-0.321489
147	0x3ea9700b	0.33093295
148	0xc0afdda7	-5.495807
149	0xc00dab1f	-2.2135694
150	0xc0340730	-2.8129387
151	0xc013ba87	-2.3082597
152	0x3e554631	0.20827557
153	0x40a4043e	5.125518
154	0x3e824366	0.25442046
155	0x4202d1b4	32.70479
156	0xc01f833a	-2.4923844
157	0x3ebca802	0.3684693
158	0xc0ba4ca8	-5.8218575
159	0x41909bf9	18.076159
160	0x3e6618b8	0.22470367
161	0x409c4378	4.883236
162	0xc017560a	-2.3646264
163	0x40a70894	5.219797
164	0x41e3662c	28.424889
165	0x41b32bd2	22.396397
166	0x3e66312b	0.22479694
167	0x40802075	4.003962
168	0x40952cd5	4.6617227
169	0x41ac1522	21.510319
170	0xbe5691b4	-0.20954019
171	0xc10a4c58	-8.643639
172	0x3e89d0dd	0.26917163
173	0x3eb778d3	0.3583437
174	0xc0d58ccd	-6.6734376
175	0xc0e1ed53	-7.0602202
176	0xc0de66d4	-6.9500523
177	0xc014b176	-2.3233314
178	0x40a55d89	5.167668
179	0x3e68b62a	0.2272574
180	0xbe8dadf0	-0.27671766
181	0x3eb1db73	0.3473774
182	0x4087d016	4.244151
183	0xbeb6e196	-0.35718983
184	0xc095ef6d	-4.685477
185	0xc0886a7e	-4.2629995
186	0xc0e0453b	-7.008451
187	0x3e6da21f	0.23206376
188	0x419d4eac	19.663414
189	0xc015ffd6	-2.34374
190	0xc0eba5ff	-7.364013
191	0xc1049945	-8.287419
192	0x3e87f74a	0.26555854
193	0x4087181b	4.2216926
194	0xbff4d2bd	-1.9126812
195	0xc018ba37	-2.3863657
196	0x3e8d0d6d	0.27549306
197	0xc00e00ba	-2.2187943
198	0x4091c0aa	4.5547686
199	0x3e7328dd	0.23746057
200	0xbe864076	-0.26221055
201	0x3e7d7882	0.24753001
202	0x3e8af708	0.27141595
203	0xbfdb501e	-1.7133825
204	0xc084fe13	-4.156015
205	0x3eab6e68	0.3348267
206	0x3ea75c39	0.32687548
207	0x3e513536	0.20430455
208	0xbebe2822	-0.37139994
209	0x409c0976	4.876155
210	0xbea4bbb9	-0.3217447
211	0xbe897eb0	-0.26854467
212	0x3e8c9afb	0.2746199
213	0xc0b82850	-5.754921
214	0x3e838b50	0.25692225
215	0xbe8233e6	-0.2543022
216	0x3e8e98ea	0.2785104
217	0xbea8d229	-0.3297284
218	0x3e95bd7c	0.29246128
219	0x3eac10ba	0.3360651
220	0xc015d1a8	-2.3409214
221	0xc013ce0a	-2.3094506
222	0x3ea4cf8f	0.32189605
223	0xbf465e6d	-0.7748783
224	0x4082be24	4.0857105
225	0xbec3fcb7	-0.38278744
226	0xc009522f	-2.145641
227	0xc0dea5c5	-6.9577355
228	0x3e7174b6	0.23579678
229	0xbe90face	-0.2831635
230	0xbeb18609	-0.34672573
231	0xbeb9f673	-0.36320838
232	0xbec33677	-0.3812749
233	0x3e964a76	0.29353684
234	0x3e6fca22	0.23416951
235	0xc0cba9f9	-6.3644986
236	0x3eb15d6c	0.34641588
237	0x3e59e643	0.21279244
238	0xc0e68a43	-7.2043777
239	0x3e66f4d1	0.22554328
240	0x407144d2	3.7698255
241	0xbea2dcbc	-0.31809032
242	0xbea55cbc	-0.32297313
243	0x3e39f361	0.18159248
244	0x40b620b9	5.6914945
245	0x408676b0	4.201988
246	0xbfeca9a1	-1.8489267
247	0xc0c15886	-6.042056
248	0x40e28031	7.0781484
249	0x3e88e3b1	0.26736215
250	0x408da5a5	4.4264703
251	0xbff2ccff	-1.896881
252	0x41859409	16.697283
253	0xc01e791f	-2.4761426
254	0xbe6275bd	-0.22115226
255	0x3e35dc35	0.17759784

first_layer.0.bias f4 [300]
0	0x40cc6a5f	6.3879848
1	0xbf7a4f7f	-0.9777755
2	0x40069772	2.1029935
3	0xbeebf992	-0.46088845
4	0x4087c9c0	4.2433777
5	0xbfef49e4	-1.8694425
6	0x40be1969	5.940602
7	0x40d92447	6.7856784
8	0x410ee1a0	8.930084
9	0xc0e9c6ab	-7.3055015
10	0x40880c20	4.25148
11	0xbfa976e8	-1.3239412
12	0x41258073	10.34386
13	0x401af02f	2.4209096
14	0x40dc03d9	6.8754697
15	0x40091c97	2.14237
16	0x41005f59	8.023278
17	0xc000d8c8	-2.0132313
18	0x401bc251	2.4337351
19	0xc008108f	-2.1260107
20	0xbfeeaae8	-1.8645906
21	0xc0095f0c	-2.1464262
22	0xbebd45de	-0.36967367
23	0xbfec7ef9	-1.8476249
24	0x403506cb	2.8285396
25	0xc027afee	-2.620113
26	0x4058710e	3.3819003
27	0xbffa2507	-1.954255
28	0xc005e547	-2.092119
29	0x4093f763	4.6239486
30	0xbfd601d3	-1.6719307
31	0xbfd20c3a	-1.6409981
32	0xc00d7f2e	-2.2108874
33	0xbf411ca3	-0.7543432
34	0xc02a1eec	-2.6581373
35	0x3fe18fcf	1.7622012
36	0x41019a8b	8.10023
37	0x40904905	4.5089135
38	0x405936f3	3.3939788
39	0xbf8aa788	-1.0832376
40	0x3fe48602	1.7853396
41	0x3ffe8242	1.9883502
42	0x3fa8f492	1.3199637
43	0xc01bc83c	-2.4340963
44	0x3f1e8096	0.61914957
45	0xbf5c2e3f	-0.86008066
46	0x3faf4155	1.3691813
47	0xbf508c3f	-0.81464
48	0xbfeb815a	-1.839885
49	0xc00010d3	-2.0010269
50	0xbf16d3d9	-0.58917004
51	0xbff43b8d	-1.9080673
52	0xbfcf9f7f	-1.6220549
53	0xc010e2cc	-2.2638426
54	0x3fc03b65	1.5018126
55	0x402b2b0f	2.674503
56	0x412c9e51	10.788651
57	0xc000f76f	-2.0151021
58	0xbf8d2095	-1.1025568
59	0x409ae35c	4.840254
60	0xbf4289d2	-0.7599155
61	0xc00bd266	-2.1847167
62	0x409750e6	4.7286253
63	0x40cc048b	6.3755546
64	0x40b6e800	5.7158203
65	0xbe4888f9	-0.19583501
66	0x40214d9e	2.5203624
67	0x40213f88	2.5195026
68	0x401eaa42	2.4791417
69	0xc033d431	-2.8098261
70	0xc001b63f	-2.0267484
71	0xbfe631a4	-1.7983899
72	0x4024b36d	2.5734513
73	0x40243bd3	2.5661514
74	0xc01148ec	-2.2700758
75	0xbfcf90d1	-1.621607
76	0xbfca65db	-1.5812334
77	0x3ff94d02	1.9476626
78	0x3f42f99e	0.76162136
79	0xc01366ba	-2.303145
80	0xbfc229ca	-1.5169003
81	0xbf3e20da	-0.7426888
82	0xbf8bcf18	-1.0922575
83	0x4004d318	2.0753841
84	0x410e7b37	8.905082
85	0x40292664	2.6429682
86	0x40cc15dd	6.377669
87	0xc00600e9	-2.0938056
88	0xbfd2c9d6	-1.6467845
89	0xbf8594d2	-1.0436041
90	0x401718bc	2.3608847
91	0xbfef6b7c	-1.8704677
92	0xc011c7cc	-2.2778196
93	0xbff56fc5	-1.9174734
94	0x4096c83a	4.7119417
95	0xc010eaa6	-2.2643218
96	0xc025b0c6	-2.5889144
97	0xbfc2e4a4	-1.5226026
98	0xc01a2237	-2.4083383
99	0x3fa6211a	1.2978852
100	0xc00043d2	-2.0041394
101	0x410cc52e	8.79814
102	0xc022f007	-2.5459
103	0x400aa070	2.1660423
104	0x3fba8b5a	1.4573777
105	0x3fefd11f	1.8735694
106	0xbec94de1	-0.3931723
107	0xbfef65f3	-1.8702987
108	0xc036c2ce	-2.85564
109	0xc0c66810	-6.200203
110	0xc09af074	-4.841852
111	0x4041324b	3.0186946
112	0xc01aec6b	-2.4206798
113	0x4026c9bb	2.6060627
114	0x3f87d817	1.061282
115	0xc00eef20	-2.233345
116	0x40fde6ca	7.9344225
117	0xbf61e543	-0.8824045
118	0xbfc3ce5f	-1.5297354
119	0xbfe07eab	-1.7538656
120	0x4031519a	2.7706056
121	0xbfa9af15	-1.3256556
122	0xbfd86dc0	-1.6908493
123	0x40df8444	6.9848957
124	0xbff6eabb	-1.9290384
125	0x40ee13fa	7.4399385
126	0xbfd62304	-1.6729436
127	0xc05699a2	-3.353127
128	0xc0018c99	-2.0242064
129	0xc0727e1e	-3.7889476
130	0x40d94d5f	6.7906947
131	0xbfde84a7	-1.7384232
132	0xbfc795c8	-1.5592585
133	0x40c8f1b2	6.279504
134	0x3fb1ae49	1.3881313
135	0x4004db77	2.075895
136	0xbfd57252	-1.6675513
137	0xbfe5ed06	-1.7962959
138	0xbf26374a	-0.64928114
139	0x40dae9f5	6.841059
140	0xbfca5db5	-1.5809847
141	0x4039ee3c	2.9051657
142	0xc01cd81a	-2.4506898
143	0xc026a9e3	-2.604119
144	0xbfa7b44a	-1.3101895
145	0x40e189e0	7.0480804
146	0x3fe76195	1.8076655
147	0xc01baa35	-2.4322636
148	0x40ed4afa	7.4154024
149	0x40b596c0	5.674652
150	0x40f3bd87	7.6168857
151	0x40cbe12c	6.371237
152	0xbf2e1fb4	-0.68017125
153	0xc001e5d3	-2.0296524
154	0xbfbb0bf6	-1.4613025
155	0xc0b139bb	-5.538297
156	0x40d8ca5f	6.7747035
157	0xc034c9a1	-2.8248065
158	0x40fb03aa	7.8441973
159	0xc017214e	-2.3614078
160	0xbf762b57	-0.9615988
161	0xc015f863	-2.3432853
162	0x40bd8613	5.9226165
163	0xc009cad6	-2.1530051
164	0xc09a176b	-4.8153586
165	0xc0713ade	-3.769218
166	0xbf7c8a66	-0.9864868
167	0xbfeaad0b	-1.8334059
168	0xc00ac41d	-2.1682198
169	0xc0649208	-3.571413
170	0x3f5154f6	0.81770265
171	0x41365e3a	11.398005
172	0xbfd5d1e4	-1.6704679
173	0xc02f95ce	-2.7435184
174	0x4110acfd	9.042233
175	0x41187467	9.528419
176	0x4114e543	9.305972
177	0x40d116a3	6.5340133
178	0xc0114daa	-2.2703652
179	0xbf831d7e	-1.0243375
180	0x3fe79c62	1.8094599
181	0xc0284954	-2.6294756
182	0xbffdadbb	-1.9818643
183	0x402e8302	2.726746
184	0x40c708db	6.219831
185	0x40bd828f	5.9221873
186	0x4117809b	9.468898
187	0xbf8aeeac	-1.0854087
188	0xc047d357	-3.1222742
189	0x40cbae26	6.3650084
190	0x411e024c	9.875561
191	0x412f68b2	10.96306
192	0xbfca1293	-1.5786918
193	0xbff2fa26	-1.8982589
194	0x408e401b	4.4453254
195	0x4119fb01	9.62378
196	0xbfdf5bb1	-1.7449857
197	0x40b1f3be	5.5610037
198	0xc003b954	-2.0581865
199	0xbf98656e	-1.1905954
200	0x3fcee7fc	1.6164546
201	0xbfaca5f1	-1.3488141
202	0xbfd57650	-1.6676731
203	0x40b6102e	5.689475
204	0x40aa066e	5.313285
205	0xc01ea924	-2.4790735
206	0xc019516c	-2.3955946
207	0xbf305947	-0.68886226
208	0x403e17ae	2.9701953
209	0xc003b246	-2.057756
210	0x4018d92f	2.3882558
211	0x3fd8eac5	1.6946646
212	0xbfd9e6b8	-1.7023535
213	0x40f9e4be	7.8091726
214	0xbfbf8ed6	-1.4965465
215	0x3fbfd94f	1.4988192
216	0xbfe4a3dd	-1.7862507
217	0x4002edc1	2.0457613
218	0xbffbab62	-1.9661677
219	0xc01fed11	-2.4988444
220	0x40bb54fb	5.8541236
221	0x40b851cb	5.7599845
222	0xc0142cbc	-2.3152304
223	0x40de630d	6.949591
224	0xbff5096d	-1.9143502
225	0x40448393	3.0705307
226	0x40b61160	5.689621
227	0x41173e64	9.452732
228	0xbf974a21	-1.1819497
229	0x3ff35db0	1.9012966
230	0x402b84bf	2.6799772
231	0x40381ea1	2.8768694
232	0x4041f0a8	3.0303135
233	0xbff9c6ce	-1.9513795
234	0xbf955551	-1.1666662
235	0x4109a7cc	8.603466
236	0xc02385c4	-2.5550394
237	0xbf5b877b	-0.857536
238	0x411b81a9	9.719155
239	0xbf83cd49	-1.0297023
240	0xbfe312ad	-1.7740074
241	0x4015bef8	2.3397808
242	0x3fef3a0d	1.8689591
243	0xbd9e2734	-0.07722321
244	0xbfff55e5	-1.9948088
245	0xbff59c3a	-1.9188302
246	0x408ab9a5	4.3351617
247	0x41066c81	8.40149
248	0xc00393a4	-2.0558863
249	0xbfcfbd2a	-1.6229603
250	0xbfffbb63	-1.9979061
251	0x4091f4d9	4.5611386
252	0xc00fc78e	-2.2465549
253	0x40d6944f	6.705604
254	0x3f7f49e0	0.997221
255	0xbe421495	-0.18953164

hidden_layers.0.0.weight f4 [300, 300]
0	0xbe0a8c11	-0.13529994
1	0xbe476c32	-0.19474867
2	0xbdb5aea8	-0.08871204
3	0xbdfbb76e	-0.12290846
4	0xbdb0ffd6	-0.08642547
5	0xbd84754f	-0.06467687
6	0xbdd08278	-0.10181135
7	0xbe031cce	-0.12803957
8	0xbdbcf373	-0.09226122
9	0xbe0004b6	-0.12501797
10	0xbddc7de5	-0.107662
11	0xbe2468ea	-0.16055647
12	0xbe3cb6f5	-0.18429168
13	0xbda219a0	-0.07915044
14	0xbe1894d6	-0.14900526
15	0xbdbcdad3	-0.09221425
16	0xbe10b2dd	-0.14130731
17	0xbdaa70ee	-0.08322321
18	0xbc92aaab	-0.017903646
19	0xbe0a08e2	-0.13479951
20	0xbe018e04	-0.12651831
21	0xbe622627	-0.22084866
22	0xbe2c0b1f	-0.16801117
23	0xbe2bef4a	-0.167905
24	0xbdb565d2	-0.08857311
25	0xbe0c5398	-0.13703763
26	0xbdeb146a	-0.11478503
27	0xbe0b0945	-0.13577755
28	0xbd879f92	-0.066222325
29	0xbdb38834	-0.08766213
30	0xbdcde266	-0.10052948
31	0xbdc20671	-0.09473885
32	0xbe235d5b	-0.15953581
33	0xbe264ea7	-0.16240941
34	0xbdbf6eef	-0.09347331
35	0xbd17721d	-0.03697406
36	0xbe2a4c96	-0.16630778
37	0xbcac4c12	-0.021032367
38	0xbe3f3cab	-0.18675487
39	0xbe1816de	-0.14852473
40	0xbb9d2da3	-0.0047967
41	0xbdb71c4f	-0.08940946
42	0xbdd427c2	-0.10359146
43	0xbde8e752	-0.11372246
44	0xbd872d03	-0.06600382
45	0xbdf7e7b9	-0.121047445
46	0xbc9a6d04	-0.01885081
47	0xbe3975b5	-0.18111308
48	0xbe0d610b	-0.1380655
49	0xbd968935	-0.07350389
50	0xbe32cc48	-0.1746074
51	0xbe3035ce	-0.17208025
52	0xbe1d60d8	-0.15368974
53	0xbe2fe7ad	-0.17178221
54	0xbd80210a	-0.06256302
55	0xbde7eb4a	-0.11324175
56	0xbd984be2	-0.074363485
57	0xbe10e969	-0.14151539
58	0xbe12a8ae	-0.14322159
59	0xbe3a37fa	-0.18185416
60	0xbe21aa0f	-0.15787528
61	0xbe0119de	-0.12607524
62	0xbe1acdd3	-0.15117578
63	0xbddbe7ea	-0.107375935
64	0xbdc01c0a	-0.09380348
65	0xbe1f8643	-0.1557856
66	0xbb24517d	-0.0025072985
67	0xbdb86b60	-0.09004855
68	0xbdc87be9	-0.09789259
69	0xbe05257a	-0.13002577
70	0xbdf5947a	-0.1199121
71	0xbe150bed	-0.1455533
72	0xbdcdf38b	-0.10056218
73	0xbe0f1c3e	-0.13975617
74	0xbe3f7372	-0.18696383
75	0xbe07a1d3	-0.13245325
76	0xbe0b9328	-0.13630354
77	0xbd97636a	-0.073920086
78	0xbdf2c9f1	-0.118549235
79	0xbddaf41c	-0.106910914
80	0xbe3ce3b0	-0.18446231
81	0xbe262779	-0.16225995
82	0xbe1641f9	-0.14673604
83	0xbc2838c7	-0.010267443
84	0xbe257acf	-0.16160129
85	0xbdbdd302	-0.09268762
86	0xbe177358	-0.14790094
87	0xbe030999	-0.1279663
88	0xbe35bce8	-0.17747843
89	0xbe0aaa3c	-0.13541502
90	0xbdd5365b	-0.10410758
91	0xbe17104b	-0.14752309
92	0xbe56a885	-0.20962723
93	0xbe26238f	-0.16224502
94	0xbd7a0f4c	-0.061049744
95	0xbe3504f9	-0.17677678
96	0xbda64076	-0.08117764
97	0xbe01895e	-0.12650058
98	0xbdfae28d	-0.122502424
99	0xbc037578	-0.008023612
100	0xbdcf1f1c	-0.101133555
101	0xbe3c97b3	-0.18417244
102	0xbe46c788	-0.19412053
103	0xbdee8051	-0.11645568
104	0xbdd29713	-0.10282721
105	0x3b7e131b	0.0038768712
106	0xbde15549	-0.11002595
107	0xbe171e3c	-0.14757627
108	0xbe3430aa	-0.17596689
109	0xbdd0589f	-0.10173153
110	0xbe2e90f9	-0.1704749
111	0xbd8f48f6	-0.06996338
112	0xbe379c80	-0.17930794
113	0xbd439a61	-0.04775465
114	0xbd21c390	-0.039493144
115	0xbe1f34e1	-0.15547515
116	0xbe1a5179	-0.15070142
117	0xbe156566	-0.14589462
118	0xbe322453	-0.17396669
119	0xbdefe23e	-0.11713074
120	0xbd663786	-0.056205295
121	0xbdb6594e	-0.08903752
122	0xbd8650fa	-0.06558414
123	0xbe18fa50	-0.14939237
124	0xbe0cdd41	-0.13756277
125	0xbe1d1324	-0.15339333
126	0xbe27d617	-0.16390263
127	0xbe1a5247	-0.15070449
128	0xbe48a176	-0.19592842
129	0xbe22398d	-0.15842266
130	0xbda4b846	-0.0804296
131	0xbe08d3a2	-0.13361982
132	0xbe3da53a	-0.1852006
133	0xbe4640b1	-0.19360615
134	0xbd0597de	-0.032615535
135	0xbe20f435	-0.15718158
136	0xbe49763a	-0.19674006
137	0xbe63ab68	-0.22233355
138	0xbdfa12fd	-0.12210653
139	0xbdb22225	-0.08697919
140	0xbe062eb3	-0.13103752
141	0xbdbb1add	-0.09135983
142	0xbe1ac53f	-0.15114306
143	0xbe30ac43	-0.17253213
144	0xbe1262a6	-0.14295444
145	0xbe066e9d	-0.13128133
146	0xbe1c52b8	-0.1526593
147	0xbe4d7fb3	-0.20068245
148	0xbe47874e	-0.19485208
149	0xbd898fbf	-0.067168705
150	0xbe23734f	-0.15961955
151	0xbdc9dae8	-0.09856206
152	0xbe492949	-0.19644655
153	0xbdcf6c42	-0.101280704
154	0xbe453e0e	-0.19261953
155	0xbe02e251	-0.12781645
156	0xbe00fb6c	-0.1259591
157	0xbe0c8886	-0.13723955
158	0xbdde4aab	-0.108540855
159	0xbda46292	-0.08026613
160	0xbe367d49	-0.1782123
161	0xbda5e868	-0.081009686
162	0xbe318b3f	-0.17338274
163	0xbe24d8e7	-0.16098367
164	0xbe07cf0c	-0.13262576
165	0xbd8e7aef	-0.069570415
166	0xbdcbcccd	-0.09951172
167	0xbdfdda97	-0.12395208
168	0xbe2030ea	-0.15643659
169	0xbe12fafc	-0.14353555
170	0xbdce74e2	-0.100808874
171	0xbdaa3570	-0.08310974
172	0xbe3265e4	-0.1742168
173	0xbe59d6e9	-0.21273388
174	0xbe42d5c0	-0.19026852
175	0xbe079fd2	-0.1324456
176	0xbde571c5	-0.112033404
177	0xbd9d5514	-0.07682243
178	0xbdee7fbf	-0.116454594
179	0xbdb4283f	-0.08796739
180	0xbda10ee2	-0.07864167
181	0xbe30a4c0	-0.17250347
182	0xbdbe04a6	-0.0927823
183	0xbdbf2202	-0.09332658
184	0xbe13b7b0	-0.1442554
185	0xbe1ab392	-0.15107563
186	0xbdd89e94	-0.105771214
187	0xbe2f1393	-0.1709731
188	0xbe2420c1	-0.1602812
189	0xbe2f7ea5	-0.17138155
190	0xbe282aaa	-0.16422525
191	0xbe2a0f91	-0.166075
192	0xbdb459e9	-0.088062115
193	0xbe150474	-0.1455248
194	0xbda24e4e	-0.07925092
195	0xbdac0d44	-0.08400968
196	0xbde132bf	-0.10996007
197	0xbd9772a2	-0.07394911
198	0xbdf54273	-0.11975565
199	0xbe49ea7b	-0.19718353
200	0xbd22ab69	-0.03971425
201	0xbe532840	-0.20620823
202	0xbe07e7b0	-0.13271976
203	0xbde462be	-0.11151646
204	0xbdf27753	-0.118391655
205	0xbe2fdbce	-0.17173693
206	0xbe489100	-0.19586563
207	0xbe29bc89	-0.16575827
208	0xbb74a92f	-0.0037332287
209	0xbe0eff74	-0.13964635
210	0xbdd1a039	-0.10235638
211	0xbdbf303b	-0.09335371
212	0xbe46c341	-0.19410421
213	0xbdd4de1d	-0.10393927
214	0xbdd1cb71	-0.102438815
215	0xbd83f0a8	-0.06442386
216	0xbde6a912	-0.11262716
217	0xbd9c8eee	-0.07644449
218	0xbe49c856	-0.19705328
219	0xbe3fdfd2	-0.18737724
220	0xbe0f05c4	-0.13967043
221	0xbe2ddc9f	-0.16978692
222	0xbe44635e	-0.1917853
223	0xbd9dade5	-0.076991834
224	0xbe050ab8	-0.1299237
225	0xbe28e03f	-0.16491793
226	0xbe1bb858	-0.1520704
227	0xbe412b2a	-0.18864122
228	0xbe10d7c6	-0.14144811
229	0xbd743c95	-0.059628088
230	0xbccf3aa7	-0.025296522
231	0xbdb1dd52	-0.086847916
232	0xbdf27972	-0.1183957
233	0xbe477c74	-0.19481069
234	0xbe38fc64	-0.1806503
235	0xbda97fbc	-0.082763165
236	0xbde8fb72	-0.113760844
237	0xbe004d85	-0.12529571
238	0xbe28fe14	-0.16503173
239	0xbe379f63	-0.17931895
240	0xbe0bbfd2	-0.13647392
241	0x3bd8f299	0.006620717
242	0xbe323f1d	-0.17406888
243	0xbdd701b3	-0.10498371
244	0xbe17d776	-0.14828286
245	0xbe25292c	-0.16128987
246	0xbd73cdd9	-0.059522483
247	0xbe275a94	-0.16343147
248	0xbdcda077	-0.10040372
249	0xbe1a9d7c	-0.15099138
250	0xbda7e634	-0.08198205
251	0xbe206bc2	-0.15666106
252	0xbdb83f8b	-0.08996495
253	0xbdb40445	-0.08789877
254	0xbd54901a	-0.05189524
255	0xbdb1e247	-0.08685737

hidden_layers.0.0.bias f4 [300]
0	0xbe374709	-0.17898192
1	0xbdbc27f2	-0.091873065
2	0xbda578c0	-0.08079672
3	0xbdbbf47c	-0.09177491
4	0xbe343adc	-0.17600578
5	0xbe11cdf0	-0.14238715
6	0x3e24b988	0.160864
7	0xbdb36b30	-0.08760679
8	0xbe01ce73	-0.1267641
9	0xbdd74fe0	-0.10513282
10	0xbe1c07f9	-0.15237416
11	0xbe0a1c97	-0.13487469
12	0xbe24db74	-0.1609934
13	0xbdc044da	-0.093881324
14	0xbe0d3c20	-0.13792467
15	0x3b24cbd8	0.0025145914
16	0xbdfc2123	-0.12311008
17	0xbe0ab288	-0.13544667
18	0xbd91276e	-0.07087599
19	0xbdba5872	-0.09098901
20	0xbd98337c	-0.07431695
21	0xbe325fe1	-0.17419387
22	0xbdd524df	-0.10407423
23	0xbe1fde48	-0.15612137
24	0xbde2fb30	-0.110830665
25	0xbc5a1409	-0.013310441
26	0xbd1ed9cf	-0.038781937
27	0xbdf07708	-0.117414534
28	0xbd911d4b	-0.07085665
29	0xbd93e33e	-0.072210774
30	0xbe34206e	-0.17590496
31	0xbdcbd3bb	-0.09952494
32	0xbda69243	-0.08133366
33	0xbe34cb2b	-0.17655627
34	0xbdc5f9e4	-0.096668035
35	0x3db04410	0.08606732
36	0xbe236e41	-0.15960027
37	0xbdc4c924	-0.09608677
38	0xbe177848	-0.14791977
39	0xbe067b15	-0.1313289
40	0xbdf3a71a	-0.118971065
41	0xbda9ff40	-0.08300638
42	0xbcf115a2	-0.02942926
43	0xbd9f0f9d	-0.0776665
44	0xbe0d4193	-0.13794546
45	0xbe022c36	-0.12712178
46	0xbe32616d	-0.17419977
47	0xbe1044ee	-0.14088795
48	0xbd88218d	-0.06647024
49	0xbd943013	-0.07235732
50	0xbddeff22	-0.108885065
51	0x3e4199c7	0.18906318
52	0xbe35b28e	-0.17743894
53	0xbe14050e	-0.14455053
54	0xbda0071c	-0.07813856
55	0xbff2527b	-1.8931421
56	0xbe307faa	-0.172362
57	0xbd9f0bef	-0.07765948
58	0xbe223327	-0.15839826
59	0xbdf71597	-0.12064665
60	0xbe1937e4	-0.14962727
61	0xbdfe50fb	-0.124177895
62	0x3eca563e	0.39518923
63	0xbdd1caf4	-0.10243788
64	0xbdc27549	-0.094950266
65	0xbd272923	-0.040810715
66	0xbe221e19	-0.15831794
67	0xbda3b975	-0.079943575
68	0xbe185fae	-0.14880249
69	0xbddfb4ae	-0.10923134
70	0x3d561a17	0.052270975
71	0x3d4bfe51	0.049803082
72	0xbdb59bcb	-0.08867606
73	0xbc521a75	-0.012823691
74	0xbdb2b427	-0.087257676
75	0xbdcf28ab	-0.10115179
76	0xbe04a635	-0.12954028
77	0xbdaea93c	-0.08528373
78	0xbde51bdc	-0.111869544
79	0xbe02c9d2	-0.12772301
80	0xbddde43e	-0.10834549
81	0x400f242c	2.2365828
82	0xbf0b7e62	-0.5448972
83	0xbe121c69	-0.1426865
84	0xbddf1104	-0.10891917
85	0xbe0e524d	-0.13898583
86	0xbe2b85ab	-0.16750209
87	0xbe00d868	-0.12582552
88	0xbe361093	-0.1777976
89	0xbdd7ff05	-0.10546688
90	0xbdaa2de0	-0.08309531
91	0xbdd79cb2	-0.10527934
92	0xbde36945	-0.11104063
93	0xbe25a8cc	-0.16177672
94	0xbdaf85ce	-0.08570443
95	0x3ce79de2	0.028273527
96	0xbc934ccb	-0.017980954
97	0xbdbe4dea	-0.09292205
98	0xbcd8f830	-0.026485533
99	0xbe1cec22	-0.15324453
100	0xbe20bdcb	-0.156974
101	0xbd21ebdd	-0.039531577
102	0xbe1ec944	-0.15506464
103	0xbe0b07fb	-0.13577263
104	0xbe201a09	-0.15634932
105	0xbdfa04f1	-0.12207974
106	0xbdfa69df	-0.122272246
107	0xbe0818c8	-0.13290703
108	0xbd8e250e	-0.06940661
109	0x3f67f3c2	0.9060632
110	0xbd992ff1	-0.07479847
111	0xbe224e0a	-0.15850082
112	0x3d159a4a	0.036524095
113	0xbe340da8	-0.17583334
114	0xbcbfb5a3	-0.02340204
115	0xbde512ac	-0.11185202
116	0xbe17d585	-0.14827545
117	0xbd82b896	-0.06382863
118	0xbe07af8e	-0.13250563
119	0xbe0beeeb	-0.13665359
120	0xbe079f1a	-0.13244286
121	0xbe5f85ef	-0.21828435
122	0xbe239805	-0.1597596
123	0xbe006975	-0.12540229
124	0xbd9d6397	-0.07685011
125	0xbdfe1f7f	-0.12408351
126	0xbe29b9ab	-0.16574733
127	0x3c259465	0.010106181
128	0xbe0a9666	-0.13533935
129	0xbe2fe88a	-0.1717855
130	0xbfa58c5e	-1.2933462
131	0xbde5bd5b	-0.11217757
132	0xbded5a1c	-0.115894526
133	0xbe10ed06	-0.14152917
134	0xbe65ceda	-0.22442189
135	0xbda0bac8	-0.07848126
136	0xbdcf92e1	-0.10135437
137	0xbe09f9b8	-0.13474166
138	0xbbdb03f8	-0.0066838227
139	0xbdaa653d	-0.08320091
140	0xbdd36e2c	-0.10323748
141	0xbd9b0109	-0.07568557
142	0xbde4605a	-0.1115119
143	0xbe4e0200	-0.2011795
144	0xbdfa7301	-0.122289665
145	0xbe26c9e3	-0.16287951
146	0xbdfd5e5c	-0.12371513
147	0xbdcba25a	-0.099430755
148	0x3e18c4bb	0.14918797
149	0xbd5be3db	-0.053684097
150	0xbdd0536f	-0.10172164
151	0xbdaac03a	-0.083374456
152	0x3c354637	0.011064104
153	0xbd93352f	-0.07187878
154	0xbd99a587	-0.07502275
155	0xbe2342ef	-0.15943502
156	0xbccf73c5	-0.025323758
157	0xbe3364d3	-0.1751893
158	0xbe25dc7a	-0.16197386
159	0xbf17660f	-0.59140104
160	0x3e6f3d5f	0.23363255
161	0xbe1d1dac	-0.1534335
162	0xbe006333	-0.12537841
163	0xbdbb5e99	-0.091489024
164	0x3e1d19b3	0.15341835
165	0xbe109117	-0.14117847
166	0xbdebd23a	-0.11514707
167	0xbe08afdb	-0.13348334
168	0xbe28b318	-0.16474569
169	0xbe177397	-0.14790188
170	0xbe2e21fe	-0.17005154
171	0xbe39aa46	-0.1813136
172	0xbe0adac0	-0.13560009
173	0xbe34d5df	-0.1765971
174	0xbda0cca1	-0.0785153
175	0xbdb853de	-0.090003714
176	0xbe216c6d	-0.15764017
177	0xbd063c5e	-0.032772414
178	0x3d8d6b0a	0.06905182
179	0xbe6d8d82	-0.23198512
180	0xbd95f5df	-0.07322287
181	0xbe2aa865	-0.166658
182	0x3dbcdcec	0.09221825
183	0xbcc7c104	-0.02438403
184	0x3dc170c1	0.09445334
185	0xbd95d176	-0.07315342
186	0xbdf414c7	-0.119180255
187	0xbe1c6675	-0.1527346
188	0xbe03f4cf	-0.12886356
189	0xbdc3f1d3	-0.09567609
190	0xbdf193e9	-0.1179579
191	0xbdd631f2	-0.10458745
192	0xbe2fdd2e	-0.17174217
193	0x3c84bc35	0.016203025
194	0xbe03afc7	-0.12860022
195	0xbc843f30	-0.016143411
196	0xbe2a03fd	-0.16603084
197	0xbc98a7c0	-0.018634677
198	0xbe022f5a	-0.12713376
199	0xbddb64c1	-0.10712577
200	0xbe021ebe	-0.1270704
201	0xbd96d003	-0.07363894
202	0xbe3306f0	-0.17483115
203	0x3c1a1a8f	0.009405746
204	0x3d8e939a	0.069617465
205	0xbd5e74a6	-0.054310463
206	0xbdabd905	-0.083910026
207	0xbdc34bc8	-0.095359385
208	0xbdde1fd1	-0.10845912
209	0xbfb2a7e3	-1.3957485
210	0x3d383abb	0.044977885
211	0xbe1c734e	-0.1527836
212	0xbe1d302e	-0.1535041
213	0xbdc7bed3	-0.09753194
214	0xbd2e0a0c	-0.04249005
215	0xbde73a69	-0.11290438
216	0xbe33e0d1	-0.1756623
217	0xbdbe5612	-0.0929376
218	0xbd9d95ac	-0.07694563
219	0xbdda29b4	-0.106524855
220	0xbdd37edd	-0.103269316
221	0xbe84eeb8	-0.25963378
222	0xbd9827d9	-0.07429475
223	0xbd9de542	-0.07709743
224	0x3d0b0dd6	0.03394874
225	0x3dd5f77e	0.10447596
226	0xbd1b53c2	-0.037921675
227	0xbeaeb387	-0.34121343
228	0xbe388ac0	-0.18021679
229	0xbe07de7b	-0.13268463
230	0xbe3153f5	-0.17317183
231	0xbdec3598	-0.1153366
232	0xbe2ae2f1	-0.16688134
233	0xbe12d903	-0.14340596
234	0xbde92e28	-0.11385757
235	0xbdc215e0	-0.094768286
236	0xbd9972cf	-0.07492601
237	0x3c5d57e1	0.0135097215
238	0x3cd98c01	0.026556017
239	0xbdb3d54a	-0.08780916
240	0xbe3df29a	-0.18549576
241	0xbe36a457	-0.17836128
242	0xbcaa59ab	-0.02079471
243	0xbdf9710c	-0.12179765
244	0xbdfc26e4	-0.12312105
245	0xbdbbf683	-0.09177878
246	0xbe29016c	-0.16504449
247	0xbe0a8cbe	-0.13530251
248	0xbe11ea17	-0.14249454
249	0xbdee7c75	-0.11644832
250	0xbe280f2d	-0.16412039
251	0xbe04d6e5	-0.12972601
252	0xbe2c980f	-0.16854881
253	0xbdeaad44	-0.11458829
254	0x3e307f01	0.17235948
255	0x3d17a060	0.03701818

hidden_layers.1.0.weight f4 [300, 300]
0	0x3c53a36e	0.012917383
1	0x3d337ce5	0.04382028
2	0xbbc35e3e	-0.0059621623
3	0x3c6e282f	0.014535948
4	0xbcc654c4	-0.024210341
5	0x3c121935	0.008917143
6	0x3c9a5703	0.018840319
7	0x3c90ec03	0.017690664
8	0xbd1816fb	-0.03713129
9	0xbd4c7e59	-0.049925182
10	0x3cf45bef	0.029828994
11	0xbd5a2a9f	-0.053263303
12	0xbc7e959b	-0.015538598
13	0xba4e5b23	-0.0007871857
14	0x3b2aa517	0.0026038343
15	0xbe0334ac	-0.12813061
16	0xbc6b3625	-0.014356171
17	0xbd2b3f7c	-0.04180859
18	0xbd4f1228	-0.050554425
19	0x3d2fcad7	0.042918053
20	0xbe2333af	-0.15937684
21	0xbcf36750	-0.02971235
22	0xbc9d029a	-0.01916628
23	0xbd1ca064	-0.038238898
24	0x3cfef1d0	0.031121165
25	0x3c4f4471	0.012650595
26	0xbe955818	-0.29168773
27	0xbccbe981	-0.024891617
28	0xbcfb035d	-0.030641252
29	0x3ba29d77	0.004962619
30	0x3be7b388	0.0070709623
31	0x3cabe1bc	0.020981662
32	0x3c3ef5cb	0.011655281
33	0x3d2bf0ac	0.04197757
34	0xbd28ca16	-0.04120835
35	0xbe0f341b	-0.1398472
36	0x3d0a4ade	0.033762805
37	0xbd62ac6f	-0.055340227
38	0x3cd7e86d	0.026355946
39	0xbddaa1f7	-0.106754236
40	0x3d3cb136	0.04606744
41	0xbd7c07c4	-0.061530843
42	0xbc706110	-0.014671579
43	0x3d488dfa	0.048963524
44	0x3b1cb616	0.0023912243
45	0xbbb6582e	-0.005564711
46	0xbd5522ad	-0.052035023
47	0x3a0eeb69	0.0005451949
48	0x3a7f339c	0.00097351684
49	0xbe0e9c24	-0.1392675
50	0xbd03be6f	-0.032164034
51	0x3ec9a916	0.39386815
52	0x3c0b2bd7	0.008494339
53	0xbd1038e2	-0.035210498
54	0x3d4976d7	0.0491856
55	0xbe2877e4	-0.16451985
56	0x3cba9bde	0.022779401
57	0x3d6bbd53	0.0575536
58	0xbdaf2575	-0.08552066
59	0xbd46736a	-0.04844991
60	0x3c90e4c7	0.017687215
61	0x3cf7862a	0.030215342
62	0xbd3e4774	-0.04645486
63	0xbc5ad5c4	-0.01335663
64	0x3d4cd0bb	0.05000375
65	0xbe535f00	-0.20641708
66	0x3cf37761	0.02972001
67	0xbc81cdd0	-0.01584521
68	0xbd33330f	-0.043749865
69	0xbd16820a	-0.03674511
70	0x3db78640	0.08961153
71	0x3d8a64d9	0.067575164
72	0x3bdee033	0.006801629
73	0xbe24da4d	-0.160989
74	0x3cf29677	0.029612763
75	0xbd5fca44	-0.054636255
76	0xbc9f1863	-0.019420808
77	0xbd1886bc	-0.037237868
78	0x3d58b045	0.05290248
79	0xbc86ad0e	-0.01643994
80	0xbc4dc3cb	-0.012558888
81	0x3d78a5c4	0.06070496
82	0x3d999b5f	0.07500338
83	0x3d59564e	0.053060822
84	0xbd87001b	-0.06591817
85	0xbb9bf085	-0.004758897
86	0xbc8d7e4b	-0.017272135
87	0xbcdfb13c	-0.027306192
88	0x3c958f71	0.018256875
89	0xbd1f7959	-0.038934086
90	0x3d308bfb	0.043102246
91	0xbe1c0cf2	-0.15239313
92	0x3cd7b626	0.026331972
93	0x3d456f60	0.04820192
94	0x3d2aa085	0.04165699
95	0xbdc6327b	-0.09677597
96	0xbe40c67d	-0.18825717
97	0x3d2c2d0b	0.042035144
98	0xbdec69e3	-0.11543634
99	0x3d24d30a	0.040240325
100	0xbbd38e21	-0.006456152
101	0xbe3f88f1	-0.18704583
102	0x3c3f7b11	0.011687056
103	0xbd6f56ca	-0.058432378
104	0x3d3e7c36	0.046505176
105	0x3bab1468	0.0052209385
106	0xbc2f300b	-0.010692607
107	0x3ccd1b80	0.025037527
108	0x3ce1f656	0.027583282
109	0x3d2d0124	0.042237416
110	0xbd2b3210	-0.04179579
111	0xbd5798d0	-0.052635968
112	0xbeb7ce6f	-0.35899684
113	0x3d165ef9	0.036711667
114	0xbee80ff4	-0.4532467
115	0x3d1f5139	0.03889582
116	0x3c4b81a3	0.0124210445
117	0x3b9b1a95	0.0047333934
118	0x3c1423c1	0.0090417275
119	0xbd324ebb	-0.043532114
120	0x3d64c18a	0.055848636
121	0xbd2a9efc	-0.041655526
122	0x3d2c7da8	0.042112023
123	0xbd869721	-0.06571794
124	0x3d41ea63	0.04734267
125	0xbd4ca024	-0.04995741
126	0x3bf35601	0.007426024
127	0xbe842f22	-0.2581721
128	0xbb807cd0	-0.003921129
129	0xba1750e5	-0.0005772247
130	0xbd9e658f	-0.077342145
131	0xbd45242d	-0.048130203
132	0x3c5c57b3	0.0134486435
133	0xbd847f93	-0.06469645
134	0xbd0bdfb1	-0.034148876
135	0xbd59b9e4	-0.053155795
136	0xbd121a74	-0.03566976
137	0xbe295bb5	-0.1653889
138	0xbdd678b9	-0.10472245
139	0xbd3f252d	-0.046666313
140	0x3cccc40d	0.024995828
141	0xbc9bbe3a	-0.019011606
142	0x3c23ac5b	0.009989823
143	0x3cde80fb	0.027161112
144	0x3b4debd6	0.0031421087
145	0xbd52dab0	-0.051478088
146	0x3ac3a70b	0.0014927102
147	0x3c64f2e5	0.013973926
148	0xbda6209a	-0.08111687
149	0xbc40e212	-0.011772649
150	0xbcc19d15	-0.023634473
151	0xbd77a586	-0.06046059
152	0x3d7ac9b0	0.0612275
153	0xbc91861d	-0.017764146
154	0xbc087acd	-0.008330059
155	0xbc872595	-0.016497413
156	0xbd9d54ae	-0.07682167
157	0x3c40c78c	0.011766326
158	0x3b756623	0.0037444911
159	0x3d9a91a3	0.07547309
160	0xbc2f86f1	-0.010713325
161	0xbbef2ae8	-0.007298816
162	0xbbe01ca3	-0.0068393513
163	0xbd5977ff	-0.053092953
164	0xbdbf72d3	-0.09348073
165	0x3c9f2d91	0.019430907
166	0x3c1fb755	0.0097483
167	0xbc6c16f9	-0.014409774
168	0xbd534afe	-0.05158519
169	0xbce1371c	-0.027492099
170	0x3ca1333e	0.019677754
171	0x3d41e24c	0.047334954
172	0xbcb01af0	-0.02149722
173	0xbd34225b	-0.043978076
174	0xbd5e8e28	-0.05433479
175	0x3c9cebb0	0.019155353
176	0xbcd714de	-0.026255067
177	0x3f962824	1.1731
178	0xbe212c44	-0.15739542
179	0xbe0e677d	-0.13906665
180	0x3cc797d0	0.024364382
181	0xbc3fb693	-0.011701244
182	0xbde52565	-0.11188773
183	0xbe29cfe6	-0.16583213
184	0x3f4ad6fe	0.792343
185	0xbd578c88	-0.052624255
186	0xbcfd6de5	-0.03093619
187	0xbcab8251	-0.020936163
188	0x3c1ccb49	0.009569951
189	0x3d0cc8dd	0.034371246
190	0xbd4d46e0	-0.05011642
191	0xbd6f8acb	-0.058481973
192	0xbd3e061a	-0.046392538
193	0xbb4f9f9d	-0.003168083
194	0x3c2d775e	0.010587541
195	0xbd3479ba	-0.0440614
196	0xbc95ddec	-0.018294297
197	0xbea0e90f	-0.3142781
198	0xbe46c9c8	-0.19412911
199	0x3cd8718b	0.026421329
200	0x3cb8cc90	0.02255848
201	0x3e4202ce	0.18946382
202	0x3d5f4bbb	0.05451558
203	0x3dc9f890	0.09861863
204	0xbe59466d	-0.21218272
205	0x3ea9f6e3	0.33196172
206	0xbd167e5e	-0.036741607
207	0xbb0ecf91	-0.00217912
208	0x3d29e485	0.0414777
209	0xba7c875c	-0.0009633207
210	0xbe8312d2	-0.25600296
211	0x3c009ed4	0.007850368
212	0xbd5fff32	-0.054686733
213	0x3b20d7d4	0.0024542706
214	0xbe1fd183	-0.15607266
215	0xbd704136	-0.05865594
216	0xbd5766ac	-0.05258815
217	0x3d60dde8	0.054899126
218	0xbd0ff38b	-0.03514437
219	0xbd682612	-0.05667693
220	0xbc50c587	-0.012742407
221	0xbdbd0925	-0.0923026
222	0xbd34c77e	-0.044135563
223	0xbd4c8fc8	-0.049941808
224	0xbf6f4b5b	-0.9347436
225	0xbe3253cf	-0.17414783
226	0xbe1b7641	-0.15181829
227	0xbe36f6f7	-0.17867647
228	0xbd4e80e6	-0.050415896
229	0xbdb602b4	-0.08887234
230	0x3c8c4770	0.017123908
231	0xbd0d3e9d	-0.03448354
232	0x3cb02bd0	0.021505266
233	0xbd77a1de	-0.060457103
234	0xbd2eb6e3	-0.042654883
235	0xbcac1d55	-0.02101008
236	0xbd69f8f7	-0.057122197
237	0xbe273e74	-0.16332418
238	0xbea981bb	-0.3310679
239	0xbbfcfb89	-0.007720415
240	0xbd5ae3fa	-0.05344007
241	0x3c50f232	0.012753056
242	0xbe37ab1d	-0.17936368
243	0x3bf25c26	0.007396239
244	0x3c227671	0.009915934
245	0x3b9ee949	0.004849587
246	0x3dd085cd	0.101817705
247	0xbcf6024c	-0.030030392
248	0x3ca6f3b3	0.020379877
249	0xbd65ce86	-0.05610516
250	0xbc398aa4	-0.011324558
251	0xbc94422a	-0.018097956
252	0xbd3c986a	-0.04604379
253	0xbc30e640	-0.010797083
254	0xbe4e3ad4	-0.20139629
255	0xbe66e4fa	-0.22548285

hidden_layers.1.0.bias f4 [300]
0	0xbd9a2ed9	-0.07528467
1	0xbd0ac1ac	-0.033876106
2	0xbd505218	-0.05085954
3	0xbdf3a88b	-0.118973814
4	0xbce111ec	-0.027474366
5	0xbd30a4f7	-0.043126073
6	0x3b6d50e1	0.0036211538
7	0x3d260368	0.040530592
8	0xbd63a61a	-0.05557833
9	0x3e4ac2cd	0.19800873
10	0xbe1b033b	-0.15137951
11	0xbdcff4bc	-0.10154101
12	0xbc1f83bf	-0.009736001
13	0xbd36d0c5	-0.044632692
14	0xbd846db4	-0.06466237
15	0x3b9dde74	0.0048177782
16	0xbcf32cf2	-0.029684518
17	0xbe282ed7	-0.16424118
18	0xbd11e434	-0.035618022
19	0xbddd31f7	-0.10800546
20	0xbd15f7b5	-0.036613185
21	0xbdc3d275	-0.09561626
22	0xbd0c5059	-0.034256313
23	0x3c7f1349	0.015568563
24	0xbd9df0a3	-0.077119134
25	0x3cb63682	0.022242788
26	0x3d8b0289	0.06787593
27	0xbda723d4	-0.081611305
28	0xbd8446e3	-0.06458833
29	0xbd4ef4ec	-0.050526544
30	0x390b3a5c	0.00013277814
31	0x3d18bfd0	0.0372923
32	0xbbf04ab9	-0.0073331264
33	0xbd51e71f	-0.051245805
34	0xbda05705	-0.07829098
35	0xbe0c6929	-0.1371199
36	0xbdc03c66	-0.0938652
37	0xbe376d95	-0.17912896
38	0xbdc48ba0	-0.09596944
39	0xbe129a3e	-0.14316651
40	0xbd53ac6d	-0.05167811
41	0x3c50566f	0.01271592
42	0x3cf6395c	0.030056648
43	0xbddaba0f	-0.10680019
44	0xbea53bf2	-0.32272297
45	0xbdc22da5	-0.09481362
46	0xbdc3292a	-0.09529336
47	0xbdbefa60	-0.09325099
48	0xbd6274f8	-0.05528733
49	0xbd35bdec	-0.044370577
50	0xbd9f1449	-0.07767541
51	0x3cb425a0	0.021990597
52	0x3e07689c	0.13223499
53	0xbd8a8cf5	-0.06765167
54	0xbd1eef2c	-0.03880231
55	0xbbcd92ea	-0.006273617
56	0xbccd3a3b	-0.02505218
57	0xbd99eea5	-0.07516221
58	0xbbcaa560	-0.006184265
59	0xbcc96e99	-0.02458887
60	0xbd91ae2e	-0.071133
61	0xbd564ac3	-0.052317392
62	0xbd346ce8	-0.044049174
63	0xbc8a4c72	-0.016882155
64	0xbcfa47db	-0.030551841
65	0x3c9a8eaa	0.018866856
66	0x3c14e63f	0.009088098
67	0xbdb8aeb8	-0.090177
68	0xbd097aee	-0.0335645
69	0xbdbbd13f	-0.0917077
70	0x3de06297	0.109563045
71	0xbc603447	-0.013684339
72	0x3cec3be2	0.028837148
73	0x3d430eb3	0.04762144
74	0x3c7d090b	0.015444051
75	0x3daf1cc4	0.085504085
76	0xbc87e9d4	-0.01659099
77	0x3e03b1b0	0.12860751
78	0xbe123bad	-0.14280577
79	0xbdb4bd4b	-0.08825167
80	0xbe2984b8	-0.16554534
81	0xbda3b686	-0.07993798
82	0xbddad859	-0.10685796
83	0x3cbc5210	0.02298835
84	0x3cf56ddb	0.02995961
85	0xbcd72335	-0.026261905
86	0xbba419cf	-0.0050079594
87	0x3d26c06c	0.04071085
88	0xbdadf7d7	-0.08494537
89	0xbaf79ad2	-0.0018890745
90	0xbd2d9514	-0.0423785
91	0xbc617ffc	-0.013763424
92	0xbdab25ad	-0.083567955
93	0xbbff23d4	-0.0077862535
94	0x3d86de96	0.06585424
95	0xbd87ce50	-0.06631148
96	0xbe06791c	-0.13132137
97	0xbdac40ae	-0.08410774
98	0xbd68fb82	-0.05688048
99	0xbd990a4e	-0.074726686
100	0xbd42f162	-0.04759348
101	0x3c95462e	0.01822194
102	0xbde98904	-0.11403087
103	0xbd76d549	-0.060262
104	0x3e42ed12	0.19035748
105	0xbd0cf612	-0.03441436
106	0xba7e58b4	-0.0009702549
107	0x3cb8d766	0.022563647
108	0xbd89ea8f	-0.067341916
109	0x3d08ecc6	0.03342893
110	0xbdbb67b3	-0.091506384
111	0x3d135d9b	0.03597794
112	0x3cafda6b	0.021466454
113	0xbd0f946e	-0.035053663
114	0xbd3fcebc	-0.046828017
115	0xbbbd23cb	-0.005772089
116	0xbcdca87b	-0.026935806
117	0xbcb1f83c	-0.021724813
118	0xbc299dd1	-0.010352568
119	0xbd965377	-0.073401384
120	0xbdeb8f9b	-0.11502
121	0xbdd4f81b	-0.10398885
122	0x3d0269b9	0.031839106
123	0xbdeb1131	-0.114778884
124	0x3c3769d9	0.01119467
125	0xbe06720a	-0.1312944
126	0xbbe4198e	-0.006961054
127	0x3e100852	0.14065674
128	0xbe217237	-0.15766226
129	0xbc82efed	-0.015983546
130	0x3d5a0dc5	0.053235788
131	0xbd4e492f	-0.050362762
132	0xbd5373c4	-0.051624075
133	0xbd69581f	-0.056968804
134	0xbd8671ba	-0.0656466
135	0x3c2ae677	0.010430924
136	0xbd7dbcc5	-0.061947603
137	0xbdfd8636	-0.12379114
138	0xbc6c7315	-0.014431735
139	0xbd5a3565	-0.053273577
140	0xbe002b0b	-0.1251642
141	0xbe042fe6	-0.12908897
142	0xbc323faa	-0.0108794365
143	0xbd5c7eb1	-0.05383176
144	0xbca58661	-0.020205678
145	0xbd923363	-0.071387075
146	0xbdcbb285	-0.09946159
147	0xbd6b63ba	-0.057468154
148	0xbd89a32a	-0.06720574
149	0xbd37cf6d	-0.04487555
150	0xbcfa762f	-0.030573932
151	0x3c81cd9c	0.015845113
152	0xbc767640	-0.015042841
153	0xbd0acf6e	-0.033889227
154	0xbd9a9b58	-0.07549161
155	0x3e8aeef9	0.27135447
156	0xbd1a297b	-0.037637215
157	0xbd53f74c	-0.051749513
158	0xbd0e5af2	-0.0347547
159	0xbbd98b16	-0.006638895
160	0xbd61138b	-0.05495028
161	0xbd74cd07	-0.05976584
162	0x3c168e39	0.009189182
163	0xbdf3ddc0	-0.1190753
164	0xbd09497b	-0.033517342
165	0xbd2671c5	-0.040635843
166	0xbdbc14ce	-0.09183656
167	0x3c778685	0.015107756
168	0x3cad9cc9	0.021192925
169	0xbd927328	-0.071508706
170	0xbdd173b4	-0.10227147
171	0xbdea0a08	-0.114276946
172	0xbd6164f8	-0.055027932
173	0xbd0026a6	-0.031286858
174	0xbda14fce	-0.0787655
175	0xbc6bc723	-0.01439074
176	0xbda05640	-0.07828951
177	0xbd341eda	-0.043974735
178	0xbd25e030	-0.040497005
179	0xbd3869e1	-0.04502285
180	0xbc94f73a	-0.018184293
181	0xbcbb3d34	-0.022856332
182	0xbd3ac080	-0.04559374
183	0xbda33ae5	-0.079702176
184	0xbdd2bb76	-0.102896616
185	0xbe25e9c9	-0.16202463
186	0x3c99f81e	0.01879507
187	0xbceb83f9	-0.028749453
188	0x3d389846	0.045067094
189	0xbdcf9d6d	-0.101374485
190	0xbd9ea911	-0.077470906
191	0xbd8635bd	-0.065532185
192	0xbd848d10	-0.06472218
193	0xbb58f846	-0.0033106967
194	0xbe0fe355	-0.14051564
195	0xbd6769c7	-0.05649736
196	0xbbf3a6d4	-0.007435659
197	0xbd91fe02	-0.07128526
198	0xbcaeed56	-0.021353405
199	0xbbbe0271	-0.005798631
200	0x3c1ed7ff	0.009695052
201	0xbd66551d	-0.056233514
202	0xbd490161	-0.04907358
203	0xbdfd0958	-0.12355298
204	0xbd6f6b8d	-0.058452178
205	0xbd741b81	-0.059596542
206	0xbd834405	-0.06409458
207	0x3de2202a	0.11041291
208	0xbdbc085e	-0.091812834
209	0xbe1372a3	-0.14399199
210	0xbe1d42d2	-0.15357521
211	0xbe315b6b	-0.1732003
212	0x3b9c1f5e	0.0047644814
213	0xbda1e263	-0.07904508
214	0xbcc046ba	-0.023471225
215	0xbdfc0fe9	-0.12307722
216	0xbd233fcf	-0.039855774
217	0xbcf1b58b	-0.029505512
218	0xbc298a73	-0.01034795
219	0xbdf0bcf9	-0.11754794
220	0xbd753e6e	-0.05987399
221	0xbdc832e3	-0.09775331
222	0x3cb920e4	0.022598691
223	0xbdd50c16	-0.10402696
224	0xbc879884	-0.016552217
225	0xbd9b6cf9	-0.07589144
226	0xbdcf3a70	-0.10118568
227	0xbd92e4c2	-0.07172538
228	0x3b302041	0.0026874694
229	0x3e1bf386	0.15229616
230	0xbd6bb1e6	-0.057542704
231	0x3c8b3171	0.016991349
232	0x3db0aaca	0.086263254
233	0xbc8c7d90	-0.017149717
234	0xbe011ad4	-0.1260789
235	0xbe0b8dfa	-0.13628379
236	0xbca720a0	-0.020401299
237	0x3db1968a	0.08671291
238	0xbd08931e	-0.033343427
239	0xbd1d2bc5	-0.03837182
240	0xbda6336c	-0.08115277
241	0xbe42d7e2	-0.19027665
242	0xbe0d7326	-0.13813457
243	0xbceafc10	-0.028684646
244	0xbcbc73d0	-0.023004442
245	0xbd9a2109	-0.07525832
246	0x3c6f05b5	0.014588763
247	0xbe05f665	-0.13082273
248	0xbdfdb5a9	-0.123881646
249	0xbceffd55	-0.029295603
250	0x3cf116c6	0.029429805
251	0x3d7d34e2	0.06181801
252	0xbda2447f	-0.07923221
253	0xbd37c4ec	-0.044865534
254	0xbd8faa38	-0.070148885
255	0x3b99b100	0.0046902895

output_layer.weight f4 [1, 300]
0	0x3d2eaa75	0.04264303
1	0x3ddebf0c	0.10876283
2	0xbe30ea74	-0.17276937
3	0x3d4e8b64	0.050425902
4	0xbe1d5e67	-0.15368043
5	0xbe36ef0e	-0.1786463
6	0xbe1e2f46	-0.15447721
7	0xbe4828ee	-0.19546863
8	0xbe1e9733	-0.15487365
9	0xbe884658	-0.26616168
10	0x3d8a4647	0.067516856
11	0x3d8e05d3	0.06934705
12	0xbe02cf42	-0.12774375
13	0xbe39c01e	-0.18139693
14	0xbdeac9d2	-0.114642754
15	0xbe05b7d9	-0.13058414
16	0x3dcd2ae4	0.10017946
17	0x3d54ce61	0.05195463
18	0xbe2bc149	-0.16772951
19	0x3cd4c07e	0.025970694
20	0x3d9f67e4	0.077834874
21	0xbdf5571a	-0.11979504
22	0xbe53c421	-0.20680286
23	0xbe42df18	-0.19030416
24	0x3e09cc67	0.1345688
25	0xbe1f1695	-0.15535958
26	0xbe85ebb0	-0.26156378
27	0xbe1d0222	-0.15332845
28	0xbded09ec	-0.11574158
29	0xbe053809	-0.13009657
30	0xbe5d20ae	-0.21594498
31	0xbe2bee42	-0.16790107
32	0xbe3dfcff	-0.18553542
33	0x3d80b384	0.0628424
34	0x3dbdd8c7	0.092698626
35	0x3d7d45bd	0.061834086
36	0xbdf00979	-0.11720557
37	0x3ccf9e95	0.025344172
38	0x3d8eb693	0.06968417
39	0x3d7502c8	0.059817106
40	0x3da1cb11	0.0790006
41	0xbe210064	-0.15722805
42	0xbe20d37c	-0.15705675
43	0x3d7f7395	0.062366087
44	0x377de9c4	1.5134403e-05
45	0x3d63c4aa	0.055607475
46	0x3cf9691d	0.03044563
47	0x3d82fe5b	0.06396171
48	0x3d737626	0.059438847
49	0x3d9c7a11	0.0764047
50	0x3d8c06fa	0.06837268
51	0xbe30aa4e	-0.17252466
52	0xbeb27a7f	-0.34859082
53	0xbe27ecee	-0.16398975
54	0xbe366e88	-0.17815602
55	0xbe3b0dba	-0.18266955
56	0xbe30b181	-0.17255212
57	0xbe2d99d6	-0.16953215
58	0x3defbd3a	0.11706014
59	0x3df1791e	0.117906794
60	0xbe058015	-0.1303714
61	0x3d8756d4	0.06608358
62	0xbe42fd49	-0.19041933
63	0x3de0841d	0.109626986
64	0xbe08edfa	-0.13372031
65	0xbe288239	-0.16455926
66	0xbe4107a9	-0.18850578
67	0x3ddd6c07	0.1081162
68	0xbe2360fd	-0.15954967
69	0x3dad298d	0.08455191
70	0xbe776718	-0.24160421
71	0x3e01b632	0.12667158
72	0xbe484844	-0.19558817
73	0xbe82e508	-0.25565362
74	0xbe2387f9	-0.15969838
75	0xbe66f821	-0.22555591
76	0x3deab358	0.11459988
77	0xbe9aef4e	-0.302607
78	0x3d444ea8	0.047926575
79	0xbe14489a	-0.1448082
80	0x3ce33ca3	0.027738875
81	0x3dae6e92	0.08517183
82	0xbdfa9bce	-0.12236749
83	0xbe439885	-0.1910115
84	0xbe2675fa	-0.16255942
85	0xbe0b4de1	-0.13603927
86	0xbe60ad0d	-0.21941014
87	0xbe6272ba	-0.22114077
88	0x3dd27104	0.10275462
89	0xbe3e8998	-0.18607175
90	0xbe409022	-0.18804982
91	0xbe004dab	-0.12529628
92	0xbe051251	-0.12995268
93	0xbe29edd7	-0.16594635
94	0xbe42607b	-0.18982117
95	0xbe14eceb	-0.14543502
96	0x3d8281f0	0.0637244
97	0x3d9023cd	0.070380785
98	0x3dc20f08	0.09475523
99	0x3da77cfb	0.08178135
100	0xbe38ce51	-0.18047453
101	0xbe36e4db	-0.17860739
102	0x3d8fdfea	0.0702513
103	0x3db22da3	0.08700111
104	0xbe92316f	-0.2855334
105	0x3dca0253	0.098637246
106	0x3dfd7644	0.12376073
107	0xbe2be353	-0.16785936
108	0x3d95ce76	0.0731477
109	0xbe303760	-0.17208624
110	0x3df82f75	0.12118427
111	0xbe5138ec	-0.2043187
112	0xbe3790f7	-0.17926393
113	0xbe030069	-0.12793125
114	0x3da4eb4f	0.08052694
115	0xbe250c5b	-0.16117994
116	0x3de4ef1b	0.11178418
117	0xbe2fa9f4	-0.17154676
118	0xbe178da1	-0.14800121
119	0x3de82a3b	0.1133618
120	0x3d9fe228	0.07806808
121	0x3d6eeb67	0.058329966
122	0xbe2645af	-0.1623752
123	0x3da34018	0.07971209
124	0xbe48b2f1	-0.1959951
125	0x3d937bb2	0.072013274
126	0xbe0499b3	-0.12949257
127	0xbe8a7705	-0.2704393
128	0x3d6b7eb9	0.0574939
129	0xbe28c4b9	-0.16481294
130	0xbe314ff5	-0.17315657
131	0x3de51bd3	0.11186948
132	0xbe223862	-0.15841821
133	0xbe47c1c3	-0.19507508
134	0x3dcad535	0.09903947
135	0xbe11b317	-0.14228474
136	0x3dd6a51f	0.10480713
137	0x3d9a243f	0.07526445
138	0xbe047d54	-0.12938434
139	0x3d5750f1	0.052567426
140	0x3d50dfbf	0.05099463
141	0x3d8a21c0	0.067447186
142	0xbe06c4bd	-0.13160987
143	0x3db34986	0.08754258
144	0xbe1a38d3	-0.15060739
145	0x3dabc8f3	0.083879374
146	0x3d9deb53	0.077109
147	0xbe2d56c6	-0.16927633
148	0xbe122625	-0.14272363
149	0xbe29e6ee	-0.16591999
150	0xbe191bc6	-0.14952001
151	0xbe229e5b	-0.1588072
152	0xbe0b01cc	-0.13574904
153	0xbdec28c9	-0.11531217
154	0xbe231b72	-0.15928438
155	0xbf474921	-0.7784596
156	0x3df3be87	0.119015746
157	0x3e0245c3	0.12721924
158	0xbe0cde34	-0.13756639
159	0xbe0b8128	-0.13623488
160	0xbe2069f8	-0.15665424
161	0xbe04f3db	-0.12983648
162	0xbe480636	-0.1953362
163	0x3d307b39	0.043086264
164	0xbe07de54	-0.13268405
165	0xbe177850	-0.1479199
166	0x3dc16e11	0.094448216
167	0xbe498c4a	-0.19682422
168	0xbe13b9fa	-0.14426413
169	0x3d80077b	0.06251427
170	0x3e01c274	0.12671834
171	0x3d97a13b	0.07403799
172	0xbe2bc408	-0.16773999
173	0xbe0fd2ca	-0.14045253
174	0x3d504c59	0.05085406
175	0xbe4046fb	-0.18777077
176	0x3da6eeb7	0.08151
177	0xbe1239d0	-0.14279866
178	0xbe27e8a5	-0.1639734
179	0xbe29709a	-0.1654686
180	0xbe16cf31	-0.14727475
181	0xbe20ce68	-0.15703738
182	0xbe360c78	-0.17778194
183	0x3d7b107c	0.061295018
184	0x3dff701c	0.12472555
185	0x3d7327bb	0.05936406
186	0xbe50b33d	-0.20380874
187	0xbe3b89df	-0.18314312
188	0xbe2ef4ea	-0.17085615
189	0x3da6fbf3	0.08153524
190	0x3df74df6	0.12075417
191	0x3dedc854	0.11610475
192	0xbe0c9aad	-0.13730879
193	0xbdfa4bd8	-0.12221497
194	0x3d92d413	0.07169356
195	0xbe1178ca	-0.14206234
196	0x3dccd8bb	0.100022756
197	0xbe2872b8	-0.16450012
198	0xbe434977	-0.19070993
199	0xbe5646eb	-0.2092549
200	0xbe3b711c	-0.18304867
201	0xbe224f25	-0.15850504
202	0x3dbbec70	0.09175956
203	0x3cc83aa8	0.024442032
204	0xbe2bfebd	-0.16796394
205	0x3de95226	0.11392622
206	0x3dd886d4	0.105725914
207	0xbe92a155	-0.28638712
208	0x3d39b1b6	0.045335494
209	0x3d87cbe1	0.06630684
210	0x3d596a64	0.053079978
211	0x3d3fbaa3	0.04680885
212	0xbe1198e4	-0.1421848
213	0xbe07292b	-0.13199298
214	0xbe1be422	-0.15223745
215	0x3d8459ba	0.064624265
216	0x3db6ca2b	0.08925279
217	0xbe2a8b76	-0.16654763
218	0xbe182f34	-0.14861757
219	0x3dbcadea	0.09212859
220	0xbe32ab77	-0.17448221
221	0x3e09c08b	0.13452356
222	0xbe4b591d	-0.19858213
223	0x3d728305	0.05920698
224	0xbdff8bfb	-0.12477871
225	0xbdffdcf4	-0.12493315
226	0xbded84af	-0.11597573
227	0x3dafae2e	0.08578144
228	0xbe1ea45a	-0.15492383
229	0xbec47b17	-0.3837516
230	0xbe2721fc	-0.16321558
231	0xbe213389	-0.15742315
232	0xbe6ddab4	-0.2322796
233	0xbe31629f	-0.17322777
234	0x3d7448b7	0.05963966
235	0x3d98a9b1	0.07454241
236	0xbe2295be	-0.15877435
237	0xbe62fd27	-0.22166882
238	0x3dc40b93	0.0957252
239	0xbe307c55	-0.17234929
240	0x3dcc2837	0.09968608
241	0x3d058cd7	0.03260502
242	0x3db5e21a	0.08881016
243	0x3ddd3323	0.10800769
244	0xbdfb463c	-0.122692555
245	0x3dc42416	0.09577195
246	0xbe1e5d96	-0.15465388
247	0x3daf0462	0.08545758
248	0x3d712674	0.058874562
249	0xbe32f2c5	-0.17475422
250	0xbe6a149c	-0.22859424
251	0xbe522721	-0.20522739
252	0xbe18cebe	-0.14922616
253	0x3da0a6fd	0.078443505
254	0x3de86ac1	0.11348487
255	0xbe441965	-0.19150312
